checkpoint_critic_0.pth (torch_old, 31506 bytes, 5 tensors)

fc1.weight f4 [64, 48]
00000000: 3f33 00bd f1b7 6e3e 3c1e 16bd bea4 3ebe
00000010: 3df7 79be 43f0 01be 9229 183d a2ac 84bd
00000020: 73ef 323e 9338 243f c22f a1bd 9f75 65be
00000030: 76e5 3dbe 4dbd 38bd e65a 3c3d 847c 8ebe
00000040: 1704 063e f283 073f f0cc 04bd 9e58 a73e
00000050: 4cda 993e 118d b43d e1ce 75bd 6064 a93e
00000060: 1858 0d3e 2482 c1be 8ff5 5ebd 3b4a 1b3e
00000070: e6e8 d73e c37b fdbd ad34 0d3d f542 fc3c
00000080: 9708 e13c 1556 97be f144 72bd 68f0 623a
00000090: b594 813e 9ff5 d9bc 7dce bb3c c57f 853b
000000a0: 461a b53e 98c4 dcbc a57b 16bd 4a48 8d3d
000000b0: f423 ecbd 739d 9f3e 0459 d7ba 9646 2c3c
000000c0: 68b9 e53c 91f1 043e 9f02 0e3c ee40 dc3b
000000d0: f52b 973f c420 8fbd b3db eebd c85a babd
000000e0: cb33 16bd 7aba 8bbd 24be 88bd 72bc a1bb
000000f0: 5d7d d33f bb91 08bd 49a9 5a3d cbcf 0abe
00000100: af1e fabd 8166 663d 24cc 023e e0e2 a4be
00000110: 9c31 4c3f d768 1fbe 122b a8bd 5ade 90be
00000120: dcc2 8bbc f612 2e3e e717 483c 1458 da3d
00000130: 9559 94bf 2040 d8bd 9c60 943c 1232 8a3c
00000140: 5ee0 8c3d 8bca 933e 3b7c 9f3d 047a fe3d
00000150: 7906 cebf 9dad 7b3d e029 c7bd fbdc 4f3e
00000160: c84b 1a39 fb35 a83e 6e07 6c3d f74f 713e
00000170: e654 63bf ffc3 25be 4bb0 f93c 6050 b73d
00000180: 4d27 17bd 51ab 6dbe b874 1dbd 847b ee3d
00000190: f268 a23c db7a 68be fdb1 8fbd 09ae ef3d
000001a0: 67df c83d 0c95 67be 628c 973d 2c20 693e
000001b0: 5ba8 953d 086c 88be aaac 40bd 9c3c d13d
000001c0: 1b81 b43d 44b5 aabe bfca a63c 0d38 7b3d
000001d0: 3a63 173e 0a17 8bbe ae52 0b3e 9530 06be
000001e0: 4e79 093f 4a9c 963c 021b bd3d 3617 083e
000001f0: 1b56 4ebd b673 c3bd 2b48 543c 9a4d 5c3e
00000200: c2b6 bd3e aa7e 2d3e 7078 0d3d 02a1 1dbe
00000210: 33b8 9ebd ec83 a4be 1b56 f2bc c593 963c
00000220: c42c 493e 4dc9 a0bd 6b1b 5dbc 22be 67be
00000230: acde 49be 3285 ccbe 40b4 4bbd 3bb6 c8be
00000240: c852 9f3d a538 aebd 888e 703c 4d54 d4be
00000250: b6de ce3e 3bbe a4be 0b1f 233c 433e 6cbe
00000260: 6948 573d a14d 9fbe e78a 1dbd bbbb 88bd
00000270: 3bd6 f13d 65e2 293d 77a1 003d c585 e0bd
00000280: 1433 413c b1f8 babe dc62 11bd a4ab 8d3c
00000290: 527f 89be 34d7 8c3e df60 103d 8e9d e5bd
000002a0: 29fa 113e 69a2 853e 796d 8c3c 5c97 903c
000002b0: 2a5d 58be 2090 0cbe 746d 54bd 0f51 953c
000002c0: a839 843c 7996 95bc f931 983c 286c 943d
000002d0: 3b67 97bd ae5e 28be 8fb3 1abd d8a4 e43d
000002e0: f6db ad3c 5f73 473d 2791 6bbd a446 de3e
000002f0: b861 733e 23af 5c3e d2da 0b3d 604e 9e3e
00000300: bf44 cbbd 7cbc fb3e 66a4 ecbb 3720 0e3c
00000310: c3ce 903e 2a12 5ebe f68c 08be 4ce2 57bc
00000320: 067c 95bc 6864 113f 6cda ce3d 2918 3abe
00000330: 21c7 693e 786f 6dbe 4483 e73d de6a 89be
00000340: 95f0 d13d c7f5 c53e 32a7 b8bd 9c68 82be
00000350: 1f79 e83d a041 99be d43e a3bd 648c 8ebe
00000360: c8f2 ad3e 8d61 e1bd 940c 1ebd cd6e d5bc
00000370: 979e 96bd 8a24 1dbe 0bb0 183d 5066 d3bb
00000380: e8c8 873d 6ed8 bc3c 7fe7 573d 063a 2bbe
00000390: 5d4f 0cbe 021c 68be 5490 9dbd 99cd 9a3c
000003a0: e323 363e a5fc 8e3d ca48 5bbd 4c6f 873c
000003b0: 1b3f 3dbd c7ef 45be 42ee 4cbd 5807 383d
000003c0: c234 87bd 4fee 26bf f747 3d3d 7de5 60bc
000003d0: 2209 c83c 1a4d a1be 7ba9 44bd fa85 cbbc
000003e0: e231 a73d d873 bcbe f551 d4bb ff34 7c3d
000003f0: 3a35 debd 48c8 76be bc83 92bc a2d7 cb3c
-0.031298872 0.23312356 -0.036649927 -0.18617532 -0.2441072 -0.12689309 0.03714902 -0.064782396
0.17474155 0.64148825 -0.07870437 -0.2240815 -0.18544564 -0.045102406 0.045985125 -0.27829373
0.13087498 0.5293571 -0.032422006 0.32684797 0.3004936 0.08815969 -0.06001175 0.33084393
0.13803136 -0.37794602 -0.0544334 0.15165035 0.42169875 -0.12377121 0.034474064 0.030793646
0.027469916 -0.29557863 -0.05914778 0.0008657039 0.25308767 -0.02660638 0.02292561 0.004074069
0.35371608 -0.026949212 -0.03673901 0.06898554 -0.11530295 0.31174812 -0.0016429727 0.010514876
0.02804251 0.12982775 0.008667617 0.0067216074 1.181029 -0.069886714 -0.11662998 -0.090993464
-0.036670487 -0.06822677 -0.066768914 -0.0049357945 1.6522633 -0.033342104 0.0533841 -0.13555829
-0.12212884 0.0562501 0.12773186 -0.32204342 0.797632 -0.15567337 -0.0821134 -0.2829464
-0.01706069 0.1699942 0.01221273 0.10661331 -1.1589838 -0.10559106 0.018112473 0.016869579
0.06878732 0.28865466 0.07787367 0.124256164 -1.6095725 0.061444867 -0.09724784 0.20299141
0.00014714815 0.32853684 0.057624273 0.2356566 -0.8880142 -0.16188048 0.03047957 0.08950877
-0.036902715 -0.23209883 -0.03844139 0.116446525 0.019825432 -0.22703116 -0.070163704 0.117031164
0.098082356 -0.2261545 0.07399823 0.22766179 0.07307502 -0.2664492 -0.047039665 0.102166384
0.088136874 -0.3334142 0.020360349 0.06133275 0.14783946 -0.27166015 0.13605759 -0.1310447
0.5370072 0.018385071 0.09233667 0.13290104 -0.050375085 -0.095435545 0.012956659 0.21513978
0.37053496 0.1694285 0.034538686 -0.15393451 -0.07749977 -0.32131898 -0.029582074 0.018381009
0.19645983 -0.07850895 -0.0134953065 -0.22631124 -0.19713849 -0.3994537 -0.049732447 -0.3920153
0.07779461 -0.08506898 0.01468242 -0.41470566 0.4040429 -0.32176384 0.009956132 -0.23070626
0.05255929 -0.31113914 -0.038462546 -0.06676432 0.11808439 0.041475672 0.031403985 -0.109630145
0.011791963 -0.3651786 -0.03549467 0.017293759 -0.2685495 0.27507937 0.035248633 -0.11211692
0.14255585 0.26100472 0.017142044 0.017650299 -0.2112929 -0.13726854 -0.051862195 0.018227128
0.016140774 -0.018260228 0.018578516 0.07247192 -0.073927365 -0.16442367 -0.037768897 0.11164254
0.02122305 0.04869401 -0.057511475 0.4341327 0.23767745 0.21551184 0.03414423 0.3091917
-0.09925222 0.4916724 -0.0072217463 0.008674673 0.28282747 -0.21686617 -0.13335022 -0.013176512
-0.018247616 0.5679383 0.101002544 -0.18173279 0.22829868 -0.23187053 0.11304334 -0.26839346
0.102509655 0.38664076 -0.09016265 -0.25470436 0.11351227 -0.2993288 -0.07970968 -0.27841485
0.3397429 -0.110049345 -0.038586214 -0.02605381 -0.07354467 -0.1534597 0.037277263 -0.0064514056
0.06630117 0.02305242 0.052711006 -0.16721353 -0.1370215 -0.22666934 -0.07693544 0.018896865
0.17787127 0.06981782 -0.053536214 0.016532563 -0.04620276 -0.19329749 -0.050031908 0.04492888
-0.0660186 -0.6520738 0.04621121 -0.013726589 0.024418417 -0.31504136 -0.04801319 -0.024844158
0.08163811 -0.36807132 -0.0064794966 0.06157398 -0.10849996 -0.24099839 -0.017885081 0.024883095

fc1.bias f4 [64]
00000000: a64d 973d e3cd 1abd 205b 683e ab08 96be
00000010: 6646 83be 9860 53be 3626 c5bd 4b53 cdbd
00000020: d2b1 d33d f8c4 2d3d e035 343e 62cb 5d3d
00000030: ae59 813d 4834 2a3e 38a8 c43d b359 eabb
00000040: 4fb2 69be 1f93 023f ba0d c1be a129 80be
00000050: 0ab5 143f 4623 a9be 3c29 043e b77f b03d
00000060: 38c8 323b 230a 4e3d fe37 22bd 0660 1cbd
00000070: 5bbb 4b3e 867d 283e 25a3 163f a6ef a0bc
00000080: 6d47 06bf 1df2 2fbc 8be3 373d 25d5 a4bc
00000090: ea18 143e 9b8d 3dbc 02a1 c13c 7de8 d03e
000000a0: 0994 e13d a5d7 003f edcd 123d 69be 383f
000000b0: 7c14 87be c2bb e03e 595f d23d 611f 9abd
000000c0: 72df 12bf 2f01 b7be 3992 a0be 3293 e63c
000000d0: 7eb8 c23e 347b 0dbe 9271 1e3f fc45 093f
000000e0: 7103 603e 218c 2e3d 1d7b 6a3e 7692 bdbc
000000f0: 82a5 abbd 21e5 f63d b126 003f 5013 073e
0.07387857 -0.037794005 0.22691011 -0.29303488 -0.25639647 -0.20642316 -0.09626429 -0.100256525
0.10336651 0.042424172 0.17598677 0.05414904 0.06315933 0.16621506 0.09602398 -0.0071518063
-0.22821926 0.5100574 -0.37705785 -0.2503176 0.58088744 -0.33034724 0.12906355 0.0861811
0.0027279984 0.050302636 -0.03960418 -0.038177513 0.19895689 0.16454133 0.5884269 -0.019645523
-0.5245274 -0.010738877 0.044894736 -0.020121166 0.14462629 -0.011569406 0.023636345 0.40802374
0.110145636 0.5032905 0.035840917 0.7216554 -0.26382816 0.43893248 0.10272092 -0.07525516
-0.573722 -0.3574309 -0.3136156 0.02814636 0.3803138 -0.1381653 0.61892045 0.5362241
0.21876313 0.042614106 0.22898526 -0.023141127 -0.083811775 0.120554216 0.5005904 0.13190961

fc2.weight f4 [64, 68]
00000000: 00b9 f7be 1404 88be 5b47 21bd f837 d5bb
00000010: acf5 203e e963 09be d83e e7be d44b 0a3e
00000020: 2849 89be aa04 1c3c a3be 23bd 05be 8b3d
00000030: a6e1 57be bbb6 703d e779 e5bd 6c69 f93c
00000040: c24b 223e f177 24be 1143 44bd 1590 09bf
00000050: d720 8ebd e3d7 8d3d 58ae 533d b717 213e
00000060: 7760 75be 58f9 d63d 847e edbe 5cf3 9abe
00000070: 646d 84bd 60f0 c43b fa28 3bbd 3ed6 eebd
00000080: 6c85 b5be f8ae 65bc 4d31 64be 48f4 2a3d
00000090: bf92 54bd 1895 a7be 4962 5ebc ee8e 033e
000000a0: f67f e4be e440 bebd 08f9 74be 1cbf 26be
000000b0: 99a5 d5be e1f2 bbbe d775 ca3c 8f9c 6bbe
000000c0: c691 b0bd db10 cfbe 4634 32be bd34 2fbd
000000d0: 378d 57be eb53 f1be 52f8 66bd 8ad8 8f3d
000000e0: 31e2 b1bc b34d 593c cce9 56be 75a7 82bd
000000f0: c25f d7be 3deb 7cbd 80bd 363d a81b 373d
00000100: 6e92 05bf 348b 963e 787b 49be d55c 0cbe
00000110: 2d93 70be 43b2 dfbd 6e0c d6bd 1732 283d
00000120: 6621 19bd 1f55 d8bd d76f bbbe a5a4 b83c
00000130: 84f1 92bd 3c21 d73d 12c7 13bc 7340 31be
00000140: c85a aabd 5c94 6fbe 0e8d 1ebe e592 793c
00000150: e132 4cbd b4f2 cdbe 0a2d 2bbc e5ab 03be
00000160: d9c4 3abd bc3d 2abe 9a6f 38bd 4261 80bd
00000170: 9e6b 973c 5632 f7bc 3b03 ccbc 6b54 cb3c
00000180: 01e5 86bd f838 aabd 3b11 febb fccb dbbe
00000190: c0e7 23be 378b 94bc 5cbe 1abd 1701 813e
000001a0: 371f 5abd 7b84 dfbc 8acd 1e3d d732 22be
000001b0: 371a a2bd a932 26bd d407 23be dc0d 11be
000001c0: 7e04 96bd ff55 5dbd 2a32 50be 9306 16be
000001d0: 5874 e0bd dd42 43be e61d b6bd 592b 203c
000001e0: 3e8f 9f3c 184c 55be 502b c3bd 0dee 0d3c
000001f0: 1aee f9bd f182 febd 8711 1cbd 70d6 05be
00000200: 999d 4abe 80e8 d0bd 7902 b7bd 233d 2abd
00000210: f595 983e e383 73bd 0305 c83e 4143 65be
00000220: bcc3 39bd f37b 1d3e c2c7 42be 860d 17be
00000230: 0367 66be 8c4b 32be baa1 1abe 1f54 05bd
00000240: 938c ccbb 1265 61be f138 56be 53e0 923d
00000250: 7061 8cbe 321b cfbd 0aed 6abc 51b1 133d
00000260: a1d9 8dbe 92fc b2be a71f 6cbd 64a8 bcbe
00000270: 8fec 08be a882 89be 05f1 a2be c107 1dbe
00000280: d576 56bc f53d f2bc bb05 65be 8b0f 5cbe
00000290: a350 acbb da1a 01bd c356 60bd 2aa4 c2bd
000002a0: 206e 163d 19d9 1fbe b09c 03be d406 cfbd
000002b0: 030d eabd fd54 45be 29b7 58be b9de f4bd
000002c0: 5a51 1bbe e28d ddbd b9cd 47bc e699 46bd
000002d0: ac58 f7bc 9ef8 83be 18f9 553d 61af d4bd
000002e0: 40fc e6bd 95bd c2be b10f 20bd c863 383d
000002f0: 3a68 22be 24dd 3abe 0708 67bc 258b 29be
00000300: c617 d5bd 9580 4ebe 0994 b6bd f6eb 3dbe
00000310: 8fb1 dcbd 4eb1 0fbd b2cd 2d3c acc4 fcbd
00000320: 9103 72bd ef09 24be 0ce6 843d c40c 09be
00000330: a3ec dbbc bbfe 5fbf 3533 dcbc 6f3a 69bb
00000340: a841 e83d e595 05ba 6db8 a7bc bc41 f43d
00000350: 21e6 cd3c 9ae8 37bb 04bc 173e 8f6d 2d3b
00000360: 77bd 953b 5f67 96bc 87a0 073d 0139 d53b
00000370: ec00 f6bc 1c19 933b cde3 263c 10f1 8fbc
00000380: a78e a4be 2436 ab3c ada7 bbbc 3431 24bd
00000390: 4234 1dbe 4bd9 d13d 4109 44bc a635 e9be
000003a0: 1cf5 05bd 3f25 54bb 9bab 85bd a96e 773b
000003b0: 4f11 a4bc cd3e 353d 873d afbc 976c 27ba
000003c0: 34e2 ddbd c7c8 8d3c 8088 e83d 03c4 e1bc
000003d0: 8663 bbbc 6f57 3bbe 6db0 6abe b2cc 483c
000003e0: 2c61 abbb 1ae6 cbbf fbab 04bc 27cd a8bd
000003f0: 4ea2 b83d 2fca 6abc 8989 db3a a597 67bc
-0.4838333 -0.2656561 -0.03937469 -0.006506916 0.15718716 -0.13417019 -0.45165133 0.13505489
-0.26813626 0.009522596 -0.039976727 0.06823353 -0.21082172 0.058768015 -0.11204892 0.030445777
0.15849212 -0.16061379 -0.047915522 -0.53735477 -0.069398575 0.06925943 0.05167994 0.15731703
-0.2396258 0.10496777 -0.46385586 -0.30263793 -0.06466177 0.0060101002 -0.045693375 -0.11661957
-0.35453355 -0.014018767 -0.22284432 0.04173687 -0.05189776 -0.32730937 -0.013573238 0.12847492
-0.44628876 -0.09289721 -0.23923123 -0.1628384 -0.41727903 -0.3670874 0.024714394 -0.23008941
-0.08621554 -0.40442547 -0.17402753 -0.042774905 -0.21049963 -0.47134337 -0.05638916 0.070237234
-0.021714302 0.013263154 -0.20987624 -0.06379596 -0.42065245 -0.06174778 0.044614315 0.04470411
-0.5217656 0.2940308 -0.19676006 -0.13707288 -0.23493643 -0.109226726 -0.104515895 0.041063394
-0.037385367 -0.105631106 -0.36608765 0.022539446 -0.07174972 0.10504386 -0.00901963 -0.17309742
-0.083180964 -0.23396438 -0.15483496 0.015232776 -0.04985321 -0.4022423 -0.01044775 -0.12858541
-0.045597885 -0.16625112 -0.045028307 -0.062685505 0.018483933 -0.03017537 -0.024903884 0.024820527
-0.06586648 -0.08311647 -0.007753519 -0.42929065 -0.16006374 -0.018132789 -0.037779197 0.25196144
-0.053252425 -0.027284851 0.038770236 -0.15839706 -0.07915156 -0.040575657 -0.15920955 -0.14165443
-0.073250756 -0.05403709 -0.20331636 -0.14650945 -0.10959691 -0.19068475 -0.088924214 0.00977596
0.019477483 -0.20829809 -0.095297456 0.008662713 -0.122036174 -0.12427319 -0.038102653 -0.13070083
-0.19786681 -0.10200596 -0.089360185 -0.04156221 0.29801908 -0.05945195 0.39066324 -0.22388937
-0.045352682 0.15379314 -0.19021514 -0.14751253 -0.22500233 -0.17411631 -0.15100756 -0.032550927
-0.0062423437 -0.22011212 -0.20920159 0.07171693 -0.2741809 -0.10112609 -0.014338741 0.036057774
-0.277051 -0.3495832 -0.057647374 -0.36847222 -0.1337149 -0.26857495 -0.31824508 -0.15334989
-0.013089855 -0.029570559 -0.22365467 -0.21490304 -0.005258636 -0.03151975 -0.054770242 -0.09503968
0.036726117 -0.1561016 -0.1285274 -0.10108724 -0.11428263 -0.19270702 -0.2116362 -0.119565435
-0.15167752 -0.108180776 -0.012195044 -0.048486613 -0.03019365 -0.25775617 0.052239507 -0.10385013
-0.112785816 -0.38035265 -0.039077464 0.045017034 -0.15860072 -0.18248421 -0.014101035 -0.16556986
-0.10404925 -0.20166238 -0.08914954 -0.18547043 -0.10776054 -0.0350812 0.010608124 -0.123422
-0.059085432 -0.16019414 0.064891905 -0.13383776 -0.026846236 -0.8749806 -0.026879886 -0.0035587808
0.11340648 -0.00050958834 -0.020473683 0.119266 0.025134148 -0.0028062225 0.14817816 0.0026463007
0.004569705 -0.018359838 0.033112075 0.0065070395 -0.030029736 0.0044890773 0.010186148 -0.017571002
-0.32140085 0.02089984 -0.022907102 -0.040085986 -0.15351966 0.102465235 -0.011965097 -0.45548743
-0.032704458 -0.0032370833 -0.06526872 0.0037755168 -0.020027785 0.044249345 -0.021391643 -0.00063867256
-0.108341604 0.017307652 0.1135416 -0.027559286 -0.022874605 -0.18295072 -0.22918864 0.012255834
-0.0052300896 -1.5929596 -0.008097644 -0.08242255 0.09015332 -0.014330431 0.0016749363 -0.014135276

fc2.bias f4 [64]
00000000: 5e18 2abd 5566 253d a47d 4dbe 50a9 b23e
00000010: 9cfa 87bd 3dda a83d c60b 67bc c539 8f3c
00000020: 61b2 163f a9ec 68be 9ddf 03bc 3987 6cbd
00000030: 63bd 9a3c 3517 c63d 412c 293f f51c f33c
00000040: 6941 323d f3f4 c7bc 1109 c4bd 4ad6 8fbd
00000050: e840 5bbc 60c0 80bd 318a c93d 8c29 cf3c
00000060: 2403 95be 4f1e 113e 1e1c 93bd 1df5 6ebc
00000070: 5305 133d 6eb3 813c 32ca 903c 8152 64bd
00000080: b576 0b3f c8b5 55bd 7816 483c 0707 63bd
00000090: 17ad d5bc 5894 a9bb d52b 643d c661 1d3f
000000a0: 9481 6e3e 36e7 903c 03b8 cf3d 4aae 9f3c
000000b0: c405 60bd 1b9c afbd 032b 923b bea2 3fbe
000000c0: 3d3d e83d 1507 1ebb 153f a8bd 8856 12bd
000000d0: f8a5 0fbe db78 12bd f468 2a3c 95ea ddbe
000000e0: 1ee9 16be 47bb e5bc f1a1 723e 815a 38bd
000000f0: 9405 a83c cbf6 77bd 7d90 2ebe a2b2 46bd
-0.041527145 0.040380795 -0.2006746 0.348948 -0.06639597 0.08244751 -0.014101928 0.017483601
0.58865935 -0.22746529 -0.008048919 -0.057746146 0.018889135 0.09672395 0.6608315 0.029676894
0.04351941 -0.024408793 -0.09572042 -0.07023294 -0.013382174 -0.062866926 0.09840811 0.025288366
-0.2910396 0.14171718 -0.07183097 -0.014584807 0.03589375 0.015832629 0.01767454 -0.055742744
0.5447801 -0.052175313 0.012212388 -0.055426624 -0.026083512 -0.0051751547 0.055705864 0.61477315
0.23291618 0.017688375 0.10142519 0.019492287 -0.054693 -0.08574697 0.004460694 -0.18714425
0.11339805 -0.0024113108 -0.08215157 -0.035727054 -0.14028156 -0.035759788 0.010400999 -0.43343034
-0.14737365 -0.028043402 0.23694588 -0.045008186 0.020510472 -0.060538094 -0.17047305 -0.0485102

fc3.weight f4 [1, 64]
00000000: 24b5 18bd 0e75 873c 8f08 b43b a0a0 ca3c
00000010: e19a 65bc 11e2 853c 7bb4 053c 8f3d 423c
00000020: b82e 093d 5378 51bc 0754 fcbc 0c8c 82bb
00000030: 4eb0 8f3c fd05 55bc 864b e5bb ff98 4fbc
00000040: e4d7 583c d48a ac3c 3b39 37bc 0cb8 bcbc
00000050: 37ad d0bc 5a6b 0abc 8454 e23b 1229 a2bc
00000060: 6c20 3cbc 9a2d 1b3c 5d30 34bd 043a dabc
00000070: e930 10bc d51f 2bbc 1995 6dba 1001 c53c
00000080: 998b 2bbc d28c d2bc 7ddf 213b a492 e5bb
00000090: 35d4 9dbc 71c2 973c a40d 80bb 40a4 df3c
000000a0: aaa4 1c3c e253 803c 85ea c53c 9294 73b9
000000b0: a010 d93c 5590 1abd 304f a8bc 8057 0cbd
000000c0: c1d1 a9bc 9f42 2cbd 6ee8 a63c 6071 903c
000000d0: 6ed3 e8bc 7ff1 aebc 62f3 fc3b 1664 d2bb
000000e0: 3567 183d aa01 2e3d 772c a63c df2e 52ba
000000f0: 9754 23ba 7884 d33b 7e11 0dbc ad4d ffbc
-0.037282124 0.016535308 0.0054941843 0.024734795 -0.014013977 0.016343148 0.008160706 0.011855497
0.03349182 -0.012785035 -0.030801786 -0.00398398 0.017540123 -0.013001916 -0.0069975285 -0.012670754
0.013235066 0.021062292 -0.011183078 -0.02303698 -0.02547322 -0.008448446 0.0069070477 -0.019794974
-0.011482339 0.0094713215 -0.043991435 -0.026638992 -0.008800724 -0.010444601 -0.000906305 0.024048358
-0.010470294 -0.025701914 0.002469986 -0.0070060063 -0.019266227 0.018525334 -0.003907876 0.0273
0.009560743 0.015664998 0.02415968 -0.00023229633 0.026497185 -0.037735302 -0.020545572 -0.034263134
-0.020729901 -0.042055722 0.020374503 0.017632186 -0.02842113 -0.021355389 0.007719443 -0.0064206226
0.0372078 0.042482056 0.020284874 -0.00080178486 -0.00062305614 0.0064550005 -0.0086101275 -0.031164968
