checkpoint_actor_1.pth (torch_old, 24598 bytes, 6 tensors)

fc1.weight f4 [64, 24]
0	0x3ec8c051	0.39209226
1	0xbf32c435	-0.6983064
2	0xbddace1e	-0.10683845
3	0xbe52ef36	-0.20599064
4	0xbe5e62ff	-0.21717452
5	0xbef68be8	-0.48153615
6	0xbd0753f4	-0.03303905
7	0xbdad41a5	-0.08459786
8	0x3ecdb008	0.40173364
9	0xbedb715d	-0.42859927
10	0xbe0138de	-0.1261935
11	0x3e1d06f3	0.15334682
12	0xbee77aaa	-0.45210773
13	0xbf141c86	-0.57856023
14	0xbac508a0	-0.0015032478
15	0x3dcb05fa	0.09913249
16	0x3da2fbf9	0.07958216
17	0xbf2a16d6	-0.66441095
18	0xbcb67f84	-0.022277601
19	0xbd1100f8	-0.035401314
20	0xbf0427eb	-0.5162341
21	0xbf0941c2	-0.53615963
22	0xbd4c4139	-0.04986689
23	0xbd00a29a	-0.03140507
24	0x3f3a456c	0.7276218
25	0x3f5669d7	0.8375525
26	0xbd9c31c4	-0.076266795
27	0xbd87c3e7	-0.06629162
28	0xbf1dd8fb	-0.6165921
29	0xbf30e920	-0.6910572
30	0x3c4f1bf4	0.012640942
31	0xbe3fa426	-0.18714961
32	0xbea35131	-0.31897882
33	0xbe0ec880	-0.13943672
34	0xbd98fd0e	-0.07470141
35	0x3e41161c	0.1885609
36	0x3e81dd42	0.2536412
37	0x3f2335a5	0.6375373
38	0x3bf18eda	0.0073717656
39	0x3e445f52	0.19176987
40	0x3cadb762	0.021205608
41	0x3d61d292	0.055132456
42	0xbd8e2f65	-0.069426335
43	0x3e473867	0.1945511
44	0x3f4a3d70	0.78999996
45	0x3f0e75d5	0.5564855
46	0xbd0c9dd1	-0.034330193
47	0x3e0b58a9	0.1360804
48	0x3efc8a0f	0.4932408
49	0x3df5d6e8	0.12003881
50	0xbdb1eca1	-0.086877115
51	0x3e9638bd	0.29340163
52	0xbd89c180	-0.0672636
53	0xbeab4c6b	-0.3345674
54	0xbe5943bc	-0.21217245
55	0x3e486254	0.19568759
56	0x3f0dc26f	0.5537481
57	0x3d7b0fa3	0.06129421
58	0xbd2a5771	-0.041587297
59	0x3e6c26a4	0.23061615
60	0x3d72bf2f	0.059264358
61	0xbd928b0a	-0.07155426
62	0x3da0e6df	0.07856535
63	0x3dccc9f4	0.09999457
64	0x3f261cbd	0.648876
65	0x3e526224	0.2054525
66	0x3e80630d	0.2507557
67	0x3ebc8216	0.36817998
68	0x3e0e19b7	0.13876997
69	0x3b7c1adf	0.0038468165
70	0x3d279060	0.04090917
71	0x3ed08750	0.40728235
72	0x3da85b38	0.082205236
73	0x3f67ab04	0.90495324
74	0xbda4b89b	-0.08043023
75	0x3c9da35e	0.019242939
76	0x3d5167ca	0.05112437
77	0x39f20e0d	0.00046168306
78	0xbd98a37a	-0.07453056
79	0xbd906241	-0.070499904
80	0x3b95f5f0	0.004576437
81	0x3f559348	0.8342786
82	0x3d68a41f	0.056797143
83	0x3cfc783b	0.03081905
84	0xbdd54523	-0.104135774
85	0xbba4516b	-0.0050145886
86	0xbdf25390	-0.118323445
87	0x3de05e79	0.10955519
88	0x3da07df9	0.078365274
89	0x3f27710c	0.6540687
90	0xbd713ebe	-0.058897726
91	0xbf08afc0	-0.53393173
92	0xbe84156f	-0.25797603
93	0xbefe1924	-0.49628556
94	0xbdb036d5	-0.086042084
95	0xbf2e19ea	-0.6800829
96	0x3d02f1a4	0.031968728
97	0xbcf9de01	-0.030501368
98	0x3dfdbde5	0.12389735
99	0x3eda7195	0.4266478
100	0xbef47885	-0.477482
101	0xbec352ca	-0.381491
102	0x3dbcc5d6	0.09217422
103	0x3edabe31	0.4272323
104	0x3e8e8eeb	0.27843413
105	0x3d265b54	0.04061444
106	0x3e0a6a18	0.13517034
107	0x3e21d48e	0.1580374
108	0x3c2db6db	0.010602678
109	0xbef5105c	-0.47864044
110	0x3c6787ff	0.014131545
111	0x3d054a47	0.03254154
112	0x3eae549b	0.34048924
113	0x3e5c4b9f	0.21513222
114	0xbdb158b9	-0.08659501
115	0x3e0df106	0.13861474
116	0x3e8e2720	0.27764225
117	0xbeed578e	-0.4635586
118	0x3cee68e5	0.029102752
119	0xbd5c3358	-0.053759903
120	0xbd7de0f1	-0.0619821
121	0xbfb20c75	-1.3910052
122	0x3d342b4c	0.043986604
123	0xbf0f65d5	-0.5601476
124	0x3f209a85	0.6273578
125	0x3d0175a1	0.03160632
126	0xbd10f878	-0.03539321
127	0xbef4b09a	-0.47790986
128	0xbdbaa6c3	-0.091138385
129	0xbf89841b	-1.074344
130	0x3d09ae46	0.033613466
131	0xbe17b07e	-0.1481342
132	0x3de11ae7	0.10991459
133	0xbd86b0e3	-0.06576707
134	0xbcf9e738	-0.030505762
135	0x3cc61912	0.024181876
136	0xbdfd088e	-0.12355147
137	0xbf8d3ff3	-1.1035141
138	0xbd0977d5	-0.033561546
139	0x3d299f97	0.041411962
140	0x3e1cdf56	0.15319571
141	0xbe737091	-0.2377341
142	0xbd8ef1fc	-0.069797486
143	0xbdfe8c13	-0.12429061
144	0x3e811cfd	0.2521743
145	0x3f3aeb41	0.7301522
146	0xbe2c8132	-0.16846159
147	0x3dee91f8	0.11648935
148	0x3e8c1762	0.2736159
149	0xbe87d586	-0.26530093
150	0xbe315830	-0.17318797
151	0x3e99d9c5	0.30048957
152	0x3ca6b44f	0.02034965
153	0x3dae68d0	0.08516085
154	0xbdcd3822	-0.10020472
155	0x3e2db064	0.16961819
156	0xbe798a4a	-0.2436916
157	0x3f434f0c	0.7629249
158	0xbcf88827	-0.03033836
159	0x3e01cb8a	0.126753
160	0x3e65419d	0.2238831
161	0x3e68586c	0.2268998
162	0xbc4a5de2	-0.012351485
163	0x3dfd8bbd	0.123801686
164	0xbf129636	-0.57260454
165	0x3f7e554b	0.99348897
166	0x3d6f2bba	0.05839131
167	0xbbb7c5be	-0.0056082895
168	0xbd2f43a0	-0.0427891
169	0x3f0e2a54	0.5553334
170	0x3d8a310b	0.067476355
171	0x3e3a378c	0.18185252
172	0xbc00e12d	-0.007866186
173	0xbe8010e5	-0.2501289
174	0xbac84e94	-0.0015282207
175	0x3e3aceca	0.18242946
176	0xbde22a15	-0.11043183
177	0x3eac225d	0.33619967
178	0x3d67866b	0.056524675
179	0xbed91dac	-0.4240545
180	0xbe0c3faa	-0.13696161
181	0xbf4b28e8	-0.79359293
182	0x393a0e73	0.00017743725
183	0xbec50f92	-0.38488442
184	0x3df801e1	0.121097334
185	0x3ebff0b7	0.37488338
186	0x3e13908b	0.14410608
187	0x3dbd8ce4	0.092553884
188	0xbdabc794	-0.08387676
189	0xbf84c906	-1.0373847
190	0x3e716b95	0.23576196
191	0xbd04a9e6	-0.03238859
192	0x3c973ec3	0.018462544
193	0xbf06b11c	-0.52614
194	0xbe265cb5	-0.16246302
195	0xbde911d2	-0.11380352
196	0x3e88b929	0.26703766
197	0xbec578ad	-0.3856863
198	0xbe93c246	-0.28859156
199	0xbe0ae8f1	-0.13565423
200	0xbbdf4833	-0.0068140267
201	0xbec8bdb8	-0.39207244
202	0x3cfa651e	0.030565795
203	0x3e56468c	0.20925349
204	0x3f1dde8f	0.6166772
205	0xbe591c6f	-0.21202253
206	0x3d2e83b0	0.042606056
207	0x3dfb10cd	0.12259064
208	0x3d37fad8	0.044916958
209	0xbf2cecec	-0.67549014
210	0xbd1c45e7	-0.0381526
211	0xbe2caa3a	-0.16861811
212	0x3ed6382c	0.4183973
213	0x3e8785be	0.26469225
214	0xbce2ea81	-0.02769971
215	0xbe44f1ce	-0.19232866
216	0x3ed84adf	0.42244622
217	0x3f2c5e62	0.67331517
218	0xbe065b7d	-0.13120838
219	0xbe398f3e	-0.18121049
220	0xbe82558b	-0.2545589
221	0xbec3b1a9	-0.3822148
222	0xbd62b05d	-0.055343974
223	0xbe257c8c	-0.16160792
224	0xbe029a89	-0.12754263
225	0x3dd0e994	0.102008015
226	0xbc1e1c7a	-0.009650344
227	0xbedcfe10	-0.43162584
228	0xbe910758	-0.28325915
229	0x3e3a3a64	0.18186337
230	0xbe0ea3bd	-0.13929649
231	0xbe7b68e2	-0.24551728
232	0x3e316601	0.17324068
233	0x3ed4c5b7	0.41557094
234	0x3bc4af3b	0.0060023344
235	0x3dd46676	0.103711054
236	0xbf06d25e	-0.52664745
237	0x3da05e8b	0.07830533
238	0x3c1bc2d6	0.009506902
239	0x3e0746f6	0.13210663
240	0x3e08ce09	0.13359846
241	0xbeb9c12c	-0.3628019
242	0x3d86fdae	0.06591354
243	0xbd825e42	-0.063656345
244	0xbf02e7ba	-0.51134837
245	0xbd32b234	-0.04362698
246	0xbce7eae1	-0.028310241
247	0xbd992327	-0.07477408
248	0x3e7fc2a8	0.24976599
249	0xbe35d2d0	-0.177562
250	0xbbfa9635	-0.0076473006
251	0xbede271a	-0.43389207
252	0xbecd8ea2	-0.40147883
253	0xbe0b99c0	-0.1363287
254	0xbc9c13f2	-0.01905248
255	0xbef0f03e	-0.4705829

fc1.bias f4 [64]
0	0x3de2006d	0.110352375
1	0xbdb3af3c	-0.08773658
2	0xbeedc39a	-0.46438295
3	0xbe7a2de4	-0.24431568
4	0xbdbbf332	-0.09177245
5	0x3abfb2ad	0.0014625393
6	0xbe256d71	-0.1615503
7	0xbd90ae23	-0.07064464
8	0x3e3a7e68	0.18212283
9	0xbeca5d45	-0.39524284
10	0x3d1bd5bc	0.03804563
11	0x3d1cb022	0.03825391
12	0xbd00ab93	-0.031413626
13	0x3d453f53	0.048156094
14	0x3e80d25c	0.2516049
15	0x3e7dbfd8	0.24780214
16	0xbe53dee8	-0.206905
17	0xbe5de6a8	-0.2167002
18	0xbe933fa7	-0.287595
19	0xbea52f91	-0.32262853
20	0xbd5292aa	-0.0514094
21	0xbd995756	-0.07487361
22	0x3e412e3d	0.18865295
23	0xbe575d6d	-0.21031733
24	0x3e8271ff	0.25477597
25	0x3c669d64	0.014075611
26	0xbe9c5754	-0.30535376
27	0x3db8a60b	0.09016045
28	0x3eac477b	0.33648285
29	0x3ea087f7	0.31353733
30	0x3e6a0ce4	0.2285648
31	0xbdaa7bb1	-0.083243735
32	0xbe5e5c7d	-0.21714969
33	0x3ec02b68	0.37533116
34	0xbee22ca5	-0.44174686
35	0x3e758d33	0.23979644
36	0xbe898029	-0.2685559
37	0xbe9b4837	-0.30328533
38	0x3c744403	0.014908793
39	0xbde03507	-0.10947614
40	0x3e9fd845	0.31219688
41	0xbb32782d	-0.0027232275
42	0xbe0c08c9	-0.13675226
43	0x3e2e3a0a	0.17014328
44	0xbe8625ba	-0.26200658
45	0xbec2c73b	-0.38042626
46	0x3c1480ab	0.00906388
47	0x3e3733e5	0.1789089
48	0xbeb433d2	-0.35195786
49	0xbe3943fe	-0.18092343
50	0x3e1705e4	0.14748341
51	0xbd0ab60c	-0.03386502
52	0xbc97bb35	-0.018521884
53	0x3cbb00c5	0.022827515
54	0x3e790119	0.24316825
55	0xbd0f9d2a	-0.035061993
56	0xbda9b51b	-0.08286496
57	0x3e07bde5	0.13256033
58	0xbea7e634	-0.3279282
59	0xbd39b9d2	-0.045343228
60	0x3c68a68b	0.014199863
61	0x3e461f66	0.19347915
62	0xbe417a6c	-0.18894356
63	0x3ee18455	0.44046274

fc2.weight f4 [64, 64]
0	0x3ea74ef5	0.32677427
1	0xbe520634	-0.20510179
2	0xbea3f28a	-0.3202098
3	0xbf3928a3	-0.7232763
4	0x3ed239b9	0.41059664
5	0x3efa9a82	0.48946005
6	0xbe13d251	-0.14435698
7	0xbe15209d	-0.14563222
8	0x3e20a931	0.15689541
9	0x3e67cd3b	0.22636883
10	0xbf4d8c08	-0.80291796
11	0x3e452224	0.19251305
12	0xbcc0350e	-0.023462798
13	0xbe4af03c	-0.19818205
14	0x3ea9cbe5	0.33163372
15	0x3de91042	0.11380054
16	0x3df1b56c	0.118021816
17	0xbe87b71a	-0.26506883
18	0xbe4aeea5	-0.19817598
19	0xbea4aadf	-0.32161614
20	0xbe670848	-0.22561753
21	0xbe6ef65d	-0.23336168
22	0x3ec9b247	0.39393827
23	0xbeebf416	-0.4608466
24	0xbe8b2f3f	-0.27184483
25	0x3e1e21e8	0.15442622
26	0xbdc5affd	-0.09652708
27	0xbe2e820b	-0.17041795
28	0xbe6cd2eb	-0.23127334
29	0x3ee0be52	0.43895203
30	0x3e906b3b	0.2820681
31	0xbeac152d	-0.33609906
32	0xbec3dba8	-0.38253522
33	0x3ebd04c2	0.36917692
34	0x3d47a847	0.048744466
35	0xbec0a719	-0.37627485
36	0xbe6b7c22	-0.22996572
37	0xbd5afcdf	-0.053463813
38	0x3b3e5529	0.0029042459
39	0xbd89fa00	-0.06737137
40	0xbf01735b	-0.50566643
41	0x3e40d966	0.18832931
42	0xbec51e4e	-0.38499683
43	0xbd9ca987	-0.07649522
44	0xbe31ef61	-0.17376472
45	0xbe3155d2	-0.17317894
46	0x3dcf1732	0.10111846
47	0xbdb24537	-0.08704608
48	0xbef515bd	-0.47868147
49	0xbecad27a	-0.39613706
50	0xbe8ae167	-0.27125093
51	0xbe05bd95	-0.13060601
52	0x3d5607db	0.052253585
53	0xbe72abb1	-0.23698308
54	0x3ea426d8	0.32060885
55	0xbe33040a	-0.1748201
56	0x3e8a81bb	0.27052101
57	0x3cc2dcf7	0.023787005
58	0xbe83e70c	-0.25762212
59	0xbee2aec5	-0.44273964
60	0xbf0e7313	-0.5564434
61	0xbd35a177	-0.044343438
62	0xbe74cf5e	-0.2390723
63	0x3ec726d3	0.38896808
64	0xbe670f4f	-0.22564434
65	0x3f1358bc	0.5755727
66	0xbdab827c	-0.08374497
67	0x3ea4b69b	0.32170567
68	0xbd81f795	-0.06346051
69	0xbf18d7b5	-0.5970414
70	0x3eb53da0	0.3539858
71	0x3e0cd10d	0.13751622
72	0x3e0f72e0	0.14008665
73	0x3cd3b8f9	0.025845038
74	0x3dd55dec	0.10418305
75	0x3e14f38e	0.14546034
76	0xbd9d57d5	-0.07682768
77	0xbe98663d	-0.29765502
78	0xbeb35e7a	-0.35033017
79	0xbf03bfd7	-0.514646
80	0xbe1b0098	-0.15136945
81	0x3d121d48	0.035672456
82	0xbed51147	-0.41614744
83	0x3ea8ac1b	0.32943806
84	0x3dc7decd	0.09759293
85	0xbf484cdb	-0.7824227
86	0xbc83ebc8	-0.01610364
87	0xbdec5217	-0.11539095
88	0xbe774548	-0.24147522
89	0xbdbccb60	-0.09218478
90	0xbe5577f7	-0.20846544
91	0xbe30d890	-0.17270112
92	0xbf70c1cb	-0.94045705
93	0xbea27603	-0.3173066
94	0xbdaa8c62	-0.08327557
95	0x3df2546f	0.11832511
96	0xbc060a1d	-0.008181122
97	0xbe8ddc7f	-0.27707288
98	0x3edb015e	0.4277448
99	0xbe737f77	-0.23779093
100	0xbe89d899	-0.26923063
101	0xbda452a4	-0.08023575
102	0x3f0d2463	0.55133647
103	0x3d66aed7	0.056319084
104	0xbe22cd12	-0.1589854
105	0x3e35fd89	0.17772497
106	0x3c09aaab	0.008402507
107	0x3cc4d6d1	0.024028214
108	0x3bcc59ac	0.0062362757
109	0xbdaf724a	-0.08566721
110	0xbe796b6d	-0.24357386
111	0xbe721b52	-0.23643234
112	0xbd69069a	-0.05689106
113	0xbea1044a	-0.31448585
114	0x3da974c7	0.08274227
115	0x3d686393	0.056735586
116	0xbeb217a2	-0.34783655
117	0x3eeeafd1	0.46618512
118	0xbf2ab128	-0.6667657
119	0xbe5dc8ec	-0.21658677
120	0x3e0c3b08	0.13694394
121	0xbe60824c	-0.21924704
122	0xbeea04a0	-0.45706654
123	0x3e5319c2	0.20615295
124	0x3e1410c7	0.14459525
125	0x3df30ec6	0.11868052
126	0xbe188ff5	-0.14898665
127	0xbee51eed	-0.44750157
128	0x3e97b509	0.29630306
129	0x3e3ac95a	0.18240872
130	0xbc751b8e	-0.014960183
131	0xbd02590c	-0.031823203
132	0x3df7fe92	0.12109102
133	0xbde98c1e	-0.11403678
134	0x3d4c7a41	0.049921278
135	0xbdaa87bf	-0.08326673
136	0x3c4d6c29	0.012537994
137	0x3daa8471	0.083260424
138	0xbdd5bf69	-0.10436899
139	0xbda7b679	-0.08189101
140	0xbe20aa02	-0.15689853
141	0xbe2e325c	-0.17011398
142	0xbe7ed3f0	-0.24885535
143	0xbdde8508	-0.108652174
144	0xbe867f62	-0.2626906
145	0x3d09b307	0.033618
146	0x3de1df0d	0.11028872
147	0xbe4ab5db	-0.19795935
148	0xbebbbfcd	-0.3666977
149	0xbcef002b	-0.029174885
150	0xbe6f0b0b	-0.23344056
151	0xbd70b2bd	-0.058764208
152	0xbe213d46	-0.1574603
153	0xbe989144	-0.2979833
154	0x3d81c1b6	0.063357756
155	0xbe32a1cd	-0.17444535
156	0xbe5016e9	-0.2032124
157	0xbe5d838a	-0.2163221
158	0xbea41d70	-0.3205371
159	0xbd4bee8f	-0.049788054
160	0xbd801d54	-0.06255594
161	0x3e331ac2	0.17490676
162	0xbef82fc6	-0.48473948
163	0xbd0d862c	-0.034551784
164	0xbf1870c8	-0.5954709
165	0x3d86bc66	0.06578903
166	0x3d6e0cf4	0.05811782
167	0xbe8b2585	-0.27177063
168	0x3e950d8a	0.29111892
169	0x3d97a939	0.074053235
170	0xbe43d97f	-0.19125937
171	0x3defa1f1	0.1170081
172	0xbdfc18e7	-0.12309437
173	0xbd983d05	-0.074335136
174	0x3e64e360	0.22352362
175	0x3e3f0120	0.18652773
176	0xbd878230	-0.06616628
177	0xbe80eddb	-0.2518147
178	0x3e1ac0ab	0.1511256
179	0xbe81b0a4	-0.2533008
180	0xbe915d03	-0.28391275
181	0xbebaa54b	-0.36454234
182	0xbec1e3fa	-0.37869245
183	0xbe4f8172	-0.20264223
184	0xbc941aae	-0.018079128
185	0xbe7c6d29	-0.24651016
186	0x3e182967	0.14859544
187	0xbee07d71	-0.43845704
188	0xbe5aee45	-0.21379955
189	0xbe3457cb	-0.17611615
190	0xbe923a4c	-0.28560102
191	0x3ddd7632	0.108135596
192	0xbd4e118b	-0.0503097
193	0xbe64305c	-0.22284073
194	0xbe09a3fa	-0.13441458
195	0xbee10bde	-0.43954366
196	0xbe2b6b87	-0.16740237
197	0x3e97ecea	0.2967294
198	0xbf0d0024	-0.5507834
199	0xbd6b72bf	-0.057482477
200	0xbf043ab4	-0.51652074
201	0x3c3cefd4	0.011531789
202	0xbe99b5bc	-0.30021465
203	0xbe13a934	-0.14420015
204	0xbe2fc96f	-0.17166685
205	0xbe88a431	-0.26687768
206	0xbe0369b8	-0.12833297
207	0xbec9bde8	-0.394027
208	0x3e778894	0.24173194
209	0x3d0ec328	0.034854084
210	0x3e84ff65	0.259761
211	0xbf057ade	-0.52140605
212	0xbf3d5268	-0.73953867
213	0xbea19285	-0.31557098
214	0x3eb5000c	0.35351598
215	0xbe29d834	-0.16586381
216	0xbb656f6f	-0.0035009047
217	0xbd856692	-0.06513704
218	0xbedce3e3	-0.43142614
219	0xbdcbc85f	-0.09950327
220	0xbf095d08	-0.5365758
221	0x3f0b2a93	0.5436184
222	0x3ea3f57d	0.3202323
223	0x3dc1a00f	0.09454357
224	0x3d109b5a	0.035304405
225	0xbe9fff94	-0.31249678
226	0x3e9e0b96	0.30868214
227	0x3d43c1ab	0.047792118
228	0xbeff5e25	-0.49876514
229	0xbe9d7c77	-0.30759022
230	0x3dc0cce0	0.09414077
231	0x3e51fa1a	0.20505562
232	0x3e1a4f55	0.15069325
233	0xbe73aedd	-0.23797174
234	0xbd914247	-0.070927195
235	0xbdd007ad	-0.10157714
236	0xbd773b35	-0.0603592
237	0xbe785ba7	-0.24253713
238	0x3c7b449e	0.015336184
239	0xbdc9056d	-0.09815488
240	0xbe595978	-0.21225536
241	0xbe2d8183	-0.16943936
242	0xbe38399d	-0.17990728
243	0xbe570295	-0.20997079
244	0x3e62c196	0.2214416
245	0xbd0f8671	-0.035040323
246	0x3b3a31a3	0.0028410933
247	0xbe2b6abb	-0.16739933
248	0x3e0dbca8	0.13841498
249	0xbec7d5a9	-0.39030197
250	0x3e658e83	0.22417645
251	0xbde33b81	-0.11095334
252	0xbd9e36bc	-0.077252835
253	0xbe8471c5	-0.2586805
254	0x3ea9f80e	0.33197063
255	0xbe184b28	-0.1487242

fc2.bias f4 [64]
0	0xbd69a59d	-0.057042707
1	0x3e71ac6c	0.2360093
2	0xbcda3bbf	-0.026639817
3	0xbeabbd75	-0.33542982
4	0xbdb70498	-0.08936423
5	0xbeb4043b	-0.35159478
6	0xbdeadd38	-0.114679754
7	0xbe94f080	-0.29089737
8	0xbe868247	-0.2627127
9	0xbbe882a5	-0.007095652
10	0xbe416633	-0.18886642
11	0xbe434f01	-0.19073106
12	0x3ea6bb73	0.32564887
13	0x3f036931	0.51332384
14	0xbd722fda	-0.059127666
15	0xbeaa0a3a	-0.33210927
16	0x3e20f427	0.15718137
17	0x3e5ec50a	0.21754852
18	0xbe34f94c	-0.17673224
19	0xbe5b65c8	-0.21425545
20	0x3be34fdf	0.0069370116
21	0x3af60be1	0.0018771851
22	0x3ef4a5b4	0.4778267
23	0x3e3ddc20	0.18541002
24	0xbe4eb660	-0.20186758
25	0x3f13d61b	0.57748574
26	0xbe094cf8	-0.13408267
27	0xbe8da72c	-0.27666605
28	0x3e0cff3a	0.13769236
29	0x3d211b7a	0.039332844
30	0xbed69d88	-0.41917062
31	0xbe066c9c	-0.13127369
32	0x3efc11da	0.4923237
33	0xbe1ab432	-0.15107802
34	0xbec0b86d	-0.37640706
35	0xbf0da293	-0.55326194
36	0xbf01e326	-0.50737226
37	0x3e94d08d	0.29065362
38	0xbe95e0ca	-0.29273063
39	0x3e6fb2ad	0.23408003
40	0xbdbca2d6	-0.09210746
41	0xbe2d273e	-0.16909501
42	0x3ed81398	0.4220245
43	0xbe961184	-0.29310238
44	0xbe0923f6	-0.13392624
45	0x3def06bc	0.11671206
46	0xbf0e5efa	-0.5561367
47	0x3e9cf3f7	0.3065488
48	0x3e0d28c1	0.13785078
49	0x3e9cf377	0.306545
50	0x3d565157	0.052323665
51	0xbe19a184	-0.1500302
52	0xbdde55e7	-0.10856228
53	0x3d9f95b5	0.07792226
54	0xbe692b47	-0.22770415
55	0x3e9507a9	0.29107407
56	0x3d98efc2	0.07467605
57	0xbcf59a25	-0.029980728
58	0xbe702396	-0.23451075
59	0xbebb0687	-0.36528417
60	0xbc8924f4	-0.016741253
61	0x3e7382c2	0.23780349
62	0xbd349e4f	-0.044096287
63	0xbe7d54f3	-0.24739437

fc3.weight f4 [2, 64]
0	0x3e311013	0.17291288
1	0xbe9c9e30	-0.30589437
2	0x3cca48d5	0.024692932
3	0xbef4eed4	-0.4783846
4	0xbe692911	-0.22769572
5	0xbd184845	-0.037178297
6	0xbbd07114	-0.006361136
7	0xbe5c647b	-0.21522705
8	0x3f035875	0.5130685
9	0x3ecfb5e8	0.4056847
10	0xbdd153b9	-0.10221047
11	0xbea83460	-0.3285246
12	0x3e2c28c3	0.16812424
13	0x3dc7dbc7	0.09758716
14	0xbd0d538e	-0.034503512
15	0x3deca003	0.11553957
16	0x3e1dfd5f	0.15428685
17	0xbdcb3d8e	-0.0992385
18	0x3d39d662	0.045370467
19	0x3d4ff776	0.050773107
20	0x3ea7a26c	0.32741106
21	0x3f09de03	0.5385439
22	0xbe346178	-0.17615306
23	0x3ee77358	0.45205188
24	0xbe06ced0	-0.1316483
25	0x3c3be667	0.011468506
26	0xbed41066	-0.4141876
27	0x3cb667cb	0.02226629
28	0x3ecb6a6a	0.39729625
29	0x3e753261	0.23945
30	0x3c0ef881	0.00872624
31	0x3c231620	0.0099540055
32	0x3e833f95	0.25634447
33	0xbdc9d082	-0.09854223
34	0xbd5c5421	-0.05379117
35	0xbe5f0219	-0.21778144
36	0xbc8d943d	-0.0172826
37	0xbd84f353	-0.06491723
38	0x3e7b3ef7	0.24535738
39	0x3ddc845e	0.107674345
40	0xbeea7d2d	-0.45798627
41	0x3e80e505	0.25174728
42	0x3d26aa80	0.040689945
43	0xbe8f4fb6	-0.27990502
44	0xbd70b587	-0.058766868
45	0x3f1771d4	0.5915806
46	0x3e09f1b7	0.13471113
47	0x3e58dc3d	0.21177764
48	0x3da27552	0.07932533
49	0xbf055d16	-0.5209516
50	0x3ee1a20f	0.44068953
51	0xbe653778	-0.22384441
52	0xbe6e4c43	-0.23271279
53	0x3df98aeb	0.121846996
54	0xbeee4b6f	-0.46541926
55	0xbe9da656	-0.30790967
56	0xbeebd0ef	-0.4605784
57	0x3f15474c	0.58311915
58	0xbd965072	-0.073395625
59	0xbd5590ae	-0.05213993
60	0x3e6b1cc3	0.2296019
61	0xbccbc9d4	-0.024876513
62	0xbdfb2c40	-0.122642994
63	0xbe322ed0	-0.1740067
64	0x3dec5b30	0.1154083
65	0xbe74dc00	-0.23912048
66	0x3e925050	0.285769
67	0xbd0b7462	-0.03404654
68	0x3e2a71e1	0.16645004
69	0xbf2a9ae5	-0.666426
70	0xbf1eb81e	-0.6199969
71	0xbede1cd5	-0.43381372
72	0x3e35a680	0.17739296
73	0xbea057bd	-0.3131694
74	0x3edb1029	0.42785767
75	0x3f47c0f7	0.78028816
76	0x3ea22b9c	0.31673896
77	0x3ee11002	0.43957525
78	0xbeebc4e7	-0.46048662
79	0xbf3a9c4c	-0.7289474
80	0xbebbaaa5	-0.3665363
81	0x3f6d4f02	0.9269868
82	0xbec6f619	-0.38859633
83	0xbf35557c	-0.70833564
84	0xbe8dc690	-0.27690554
85	0x3f30b11c	0.6902025
86	0x3fad6dd3	1.3549141
87	0x3eae58c1	0.3405209
88	0xbf105e7d	-0.5639418
89	0x3f277da3	0.6542608
90	0x3e9d5178	0.30726218
91	0x3f5ac243	0.8545267
92	0x3ee1486d	0.4400057
93	0xbda53cfb	-0.08068272
94	0xbf424a88	-0.75894976
95	0x3f039559	0.5139976
96	0x3f550860	0.83215904
97	0xbda57d1b	-0.080805026
98	0xbe9e8e95	-0.30968156
99	0x3deeda95	0.11662785
100	0xbf4095b4	-0.7522843
101	0x3e06759b	0.131308
102	0xbe27faaf	-0.16404222
103	0x3d37977d	0.044822205
104	0xbe0ef0de	-0.13959071
105	0xbf0aa966	-0.5416473
106	0x3f434d95	0.76290256
107	0xbee3de11	-0.4450536
108	0xbed1229b	-0.40846714
109	0xbeb7fcde	-0.3593511
110	0xbf258e07	-0.6466984
111	0x3f4fa783	0.8111498
112	0x3f06c081	0.5263749
113	0xbe8b2c35	-0.27182165
114	0xbe21f549	-0.15816225
115	0xbf1ec607	-0.62020916
116	0x3e64be8b	0.22338311
117	0x3f93895b	1.1526293
118	0x3f3ed519	0.7454391
119	0xbf06497f	-0.52455896
120	0xbf351fb4	-0.707515
121	0xbea60ebc	-0.32433116
122	0x3ec325b7	0.38114712
123	0x3dcda569	0.10041315
124	0xbdcfea92	-0.101521626
125	0x3e8df9bc	0.27729595
126	0xbd873f29	-0.06603844
127	0xbed21c5f	-0.4103727

fc3.bias f4 [2]
0	0x3dfa9f5f	0.12237429
1	0xbe063dc3	-0.13109498
