checkpoint_critic_1.pth (torch_old, 31506 bytes, 5 tensors)

fc1.weight f4 [64, 48]
0.5322125 -0.26489168 -0.049622055 -0.28489318 0.25103545 -0.009345371 0.024176545 -0.16350113
0.6759963 -0.19523409 -0.13515283 -0.13118985 0.08498617 0.06436953 -0.010463161 -0.1854046
0.49242657 -0.002176148 -0.034893185 0.156961 0.14575984 0.00043511347 -0.06248276 0.16095763
0.35273835 0.062084947 -0.026552424 0.37913692 -0.07344204 -0.006223431 0.0623555 0.2582813
0.17623465 0.06917977 -0.07645074 0.13974988 -0.017343659 0.08286622 0.0056219487 0.14295876
0.49529907 0.12866685 0.0052818204 -0.3358227 0.0394313 0.22402278 0.040378116 -0.394292
-0.109444834 0.052729387 0.064837344 0.08206525 -0.12730126 0.0869867 -0.060458638 -0.015650313
0.07445775 -0.2401967 -0.06628973 0.085897356 0.2300268 0.057099506 0.05386328 -0.044724178
0.23451728 -0.10686159 0.1040214 -0.108080216 0.48392305 -0.016038027 -0.10582426 -0.06898064
0.11713875 -0.53784007 -0.008396476 0.091696985 0.14934655 0.051282715 -0.0024968076 0.0019536102
0.2682042 -0.6166459 0.10120085 -0.014538198 -0.18733595 0.15188846 -0.07392074 0.064197764
0.44469187 -0.7805212 0.02872879 0.021062944 -0.5743082 -0.02224553 0.001584418 -0.12508424
-0.096809395 -0.028105255 0.022454197 0.010680521 0.06383597 -0.21004823 -0.009268609 0.011265079
0.044331282 -0.2680655 0.05180506 0.138575 0.16156052 -0.2631996 -0.06923304 0.013078613
0.042871855 -0.29090768 -0.024937592 0.26188725 0.2019761 -0.2203412 0.09076003 0.0695095
0.316273 -0.1396058 0.037600618 -0.14366837 -0.094385274 -0.07845424 -0.041779485 -0.061429173
0.21529348 -0.14960511 0.026692575 -0.11450733 -0.16598527 -0.31806833 -0.03742807 0.057808574
0.2441598 -0.31331575 -0.10255892 -0.09927635 -0.25127473 -0.34813625 -0.13879631 -0.26498082
0.023186572 -0.761156 -0.024721697 -0.08592698 0.27581573 0.015759507 -0.029448189 0.09807043
0.2771798 -0.76355916 -0.05911087 0.12022817 0.21532094 0.23172992 0.010754807 0.077361956
0.5733677 -0.67420495 -0.0416596 0.19777006 -0.11913827 0.11995173 0.029083597 0.06835932
0.07290103 0.7423168 0.031627882 -0.034513526 -0.08306749 0.20025438 -0.037376065 -0.033936705
0.072890215 0.6120044 0.028725775 -0.03225304 -0.17116377 0.025831388 -0.027621947 0.0069186594
0.25327137 0.7459709 -0.030564887 0.46123335 0.08826694 0.060384005 0.0610907 0.33628914
-0.26790756 0.2282072 0.057951782 0.0082903365 0.21323629 -0.15031156 -0.06817742 -0.013559492
-0.2747288 0.33578715 -0.008445409 -0.032345183 0.1289122 -0.05939268 0.0035951263 -0.119005896
-0.022407567 0.4203456 -0.032329116 -0.19725536 -0.22780448 -0.32830665 -0.021875994 -0.22096552
0.08137868 -0.3983631 -0.048708443 -0.08962149 -0.003954528 -0.08690631 0.027155327 -0.07001934
0.037572738 -0.14652991 0.07248796 -0.16132027 -0.03763469 -0.054191615 -0.057158086 0.024788445
0.31827572 -0.010312922 -0.005996111 -0.0051491326 0.29511485 -0.22227338 -0.0024917314 0.023245921
0.26665968 -0.07751345 0.1111356 0.07595479 0.11964824 -0.25603703 0.016911454 0.06483747
0.2345198 -0.16098885 -0.09669307 -0.06592988 0.025336934 -0.21464153 -0.10809854 -0.10262106
00000000: 143f 083f e29f 87be 7f40 4bbd 85dd 91be
00000010: b887 803e 541d 19bc e40d c63c d76c 27be
00000020: 180e 2d3f 72eb 47be 8165 0abe a256 06be
00000030: 3b0d ae3d 2cd4 833d ae6d 2bbc b4da 3dbe
00000040: 561f fc3e b49d 0ebb 28ec 0ebd 62ba 203e
00000050: 1142 153e f11f e439 eced 7fbd 14d2 243e
00000060: 1f9a b43e c94c 7e3d 7884 d9bc 3c1e c23e
00000070: c868 96bd eced cbbb 7b68 7f3d 723d 843e
00000080: db76 343e 20ae 8d3d 3592 9cbd 981a 0f3e
00000090: 4a14 8ebc c4b5 a93d 5338 b83b c863 123e
000000a0: d797 fd3e 3ec1 033e 1f13 ad3b f4f0 abbe
000000b0: b782 213d 3a66 653e 8663 253d a4e0 c9be
000000c0: 9d24 e0bd c5fa 573d 71c9 843d d311 a83d
000000d0: 435b 02be 1526 b23d 7aa3 77bd 1635 80bc
000000e0: 4e7d 983d 20f6 75be e9c2 87bd f4ea af3d
000000f0: 258c 6b3e 2ce1 693d be9f 5c3d b330 37bd
00000100: 4c25 703e 40da dabd 2c09 d53d 2959 ddbd
00000110: c3c4 f73e 2e62 83bc 64ba d8bd b945 8dbd
00000120: 71e6 ef3d e3af 09bf 5f91 09bc a1cb bb3d
00000130: 4dee 183e d30d 523d 7ba1 23bb 2408 003b
00000140: 1052 893e 81dc 1dbf 6442 cf3d 9f31 6ebc
00000150: ffd4 3fbe a688 1b3e c263 97bd 1e7a 833d
00000160: a7ae e33e 3dd0 47bf a458 eb3c 328c ac3c
00000170: dd05 13bf 423c b6bc 3fac cf3a 1516 00be
00000180: 0144 c6bd fe3c e6bc ddf1 b73c 5afd 2e3c
00000190: 6fbc 823d e216 57be 5ddb 17bc 2a91 383c
000001a0: b894 353d e23f 89be 8b31 543d 9be6 0d3e
000001b0: 1f70 253e 19c2 86be 0dca 8dbd ae47 563c
000001c0: 669a 2f3d daf1 94be ec49 ccbc 1616 863e
000001d0: d3d2 4e3e 20a1 61be 65e0 b93d ff5a 8e3d
000001e0: 89ee a13e d3f4 0ebe 1b03 1a3d cd1d 13be
000001f0: 114d c1bd 9eac a0bd f720 2bbd 289d 7bbd
00000200: e575 5c3e 1532 19be 63aa da3c d282 eabd
00000210: 0bf8 29be dad9 a2be 2d4e 19bd afc8 6c3d
00000220: 0705 7a3e ec6a a0be 690a d2bd 6651 cbbd
00000230: 15a7 80be ea3e b2be 9f20 0ebe 91ab 87be
00000240: c4f1 bd3c 1fdb 42bf 2885 cabc 7cfa afbd
00000250: b837 8d3e 151a 813c 543d f1bc 26d9 c83d
00000260: 83ea 8d3e 9d78 43bf 3d1e 72bd 303a f63d
00000270: 187d 5c3e 9c4a 6d3e ee34 303c f26f 9e3d
00000280: 3ac8 123f b298 2cbf 42a3 2abd 3c84 4a3e
00000290: c4fe f3bd 41a9 f53d b940 ee3c f9ff 8b3d
000002a0: 234d 953d 7908 3e3f 3d8c 013d 0e5e 0dbd
000002b0: 4a1f aabd 7c0f 4d3e a517 19bd 3701 0bbd
000002c0: 7747 953d 52ac 1c3f 5152 eb3c c31b 04bd
000002d0: 8e45 2fbe 599c d33c 6c47 e2bc ecb5 e23b
000002e0: c9ac 813e f3f7 3e3f 3763 fabc c726 ec3e
000002f0: 4cc5 b43d 3855 773d 3e3a 7a3d 172e ac3e
00000300: 2e2b 89be 26af 693e d95e 6d3d 31d4 073c
00000310: 9d5a 5a3e 46eb 19be 9aa0 8bbd a228 5ebc
00000320: 41a9 8cbe 4bec ab3e 9d5e 0abc 627c 04bd
00000330: 8f01 043e bd45 73bd 369c 6b3b 5db9 f3bd
00000340: 1390 b7bc 8a37 d73e 896b 04bd 4ffd 49be
00000350: 9445 69be cf17 a8be 4935 b3bc c944 62be
00000360: dea9 a63d 40f6 cbbe 8182 47bd 798b b7bd
00000370: fc94 81bb effb b1bd d974 de3c 4d66 8fbd
00000380: dfe5 193d f00b 16be 9174 943d 2431 25be
00000390: d526 1abd 07f8 5dbd 991e 6abd 2311 cb3c
000003a0: 09f5 a23e 88f7 28bc 067b c4bb 0eba a8bb
000003b0: 4b19 973e a29b 63be 514c 23bb 3b6e be3c
000003c0: 9e87 883e 5fbf 9ebd 109b e33d 2f8e 9b3d
000003d0: 230a f53d 4917 83be e489 8a3c 82c9 843d
000003e0: f525 703e 43da 24be 0407 c6bd 3f06 87bd
000003f0: 678f cf3c fdca 5bbe c462 ddbd fe2a d2bd

fc1.bias f4 [64]
-0.2505282 -0.8824792 0.23925176 -0.4177738 -0.16631117 -0.15498058 0.55047315 -0.13804834
-0.21577486 -0.11430057 0.0976384 -0.19402452 0.32443094 -0.12806094 0.022051947 0.474638
-0.25009644 0.69672376 -0.235508 0.06072085 0.96045756 -0.04487356 -0.17425525 -0.076475374
-0.08538196 -0.10070302 -0.0019225394 0.46392292 0.5954689 0.21135324 -0.5501677 -0.11690192
0.020572305 -0.48830855 0.4231754 -0.06633634 -0.12644812 0.034912262 -0.09151021 -0.047781996
-0.071634494 -0.09844252 -0.3838113 -0.2693129 -0.08550142 0.03959849 0.042423878 -0.33326373
-0.23415154 -0.21655479 0.04660091 -0.07856807 -0.00089548866 -0.037467275 0.09810204 -0.11360558
-0.22205022 0.3749575 -0.09388138 -0.76918745 -0.42329717 -0.071079396 -0.03706805 -0.07243499
00000000: 3b45 80be 28ea 61bf 6afe 743e 73e6 d5be
00000010: 7a4d 2abe 3bb3 1ebe cfeb 0c3f 8b5c 0dbe
00000020: 16f4 5cbe 6b16 eabd a4f6 c73d 5dae 46be
00000030: d01b a63e 6822 03be 49a6 b43c c003 f33e
00000040: a40c 80be 7d5c 323f 0229 71be 6db6 783d
00000050: 8ce0 753f 57cd 37bd f86f 32be 1f9f 9cbd
00000060: bddc aebd 633d cebd b8fd fbba 4e87 ed3e
00000070: a670 183f fc6c 583e cad7 0cbf 466a efbd
00000080: 4087 a83c 9403 fabe 72aa d83e 59db 87bd
00000090: 9e7b 01be 2900 0f3d b469 bbbd 0eb7 43bd
000000a0: 1bb5 92bd 3b9c c9bd ea82 c4be 61e3 89be
000000b0: 5e1b afbd 0732 223d a9c4 2d3d 8ba1 aabe
000000c0: 6cc5 6fbe 8ac0 5dbe 99e0 3e3d 4ce8 a0bd
000000d0: 3abf 6aba 4977 19bd b9e9 c83d 0baa e8bd
000000e0: 2261 63be 6efa bf3e e244 c0bd 78e9 44bf
000000f0: 68ba d8be 1392 91bd abd4 17bd cc58 94bd

fc2.weight f4 [64, 68]
0.05258203 -0.006417075 0.0024957526 0.044299226 -0.055789687 0.036630493 -0.036071904 0.01807322
-0.13200413 0.03232942 -0.31088367 -0.015486226 0.18243481 -0.16816467 -0.20028901 -0.5028149
-0.094544366 0.004639305 0.05231273 -1.0270852 0.246376 0.07013898 -0.08393907 -0.27339306
-0.10793331 0.08268809 0.025888916 -0.2805301 0.36608604 0.18098904 -0.124897495 -0.20631129
0.011466918 -0.46041983 -0.8134303 0.026827732 -0.11899074 -0.5428944 -0.10416124 -0.0659019
-0.15148269 -0.10534932 0.055059183 -0.06274743 -0.113787875 -0.03647191 -0.4862566 0.0085385
-0.1960921 -0.11697636 0.0032847556 -0.026310906 -0.048290692 -0.046353567 0.027946291 0.06267399
0.039040994 0.036906805 0.04031321 -0.03611708 -0.17055678 -0.17776 -0.2541596 0.03159412
0.046548165 0.12037694 -0.5664515 -0.21822967 0.36801812 0.035906404 0.052240312 -0.05097254
-0.12664647 -0.20272434 -0.016893223 -0.06252555 -0.16584145 0.024956204 -0.09019739 0.029300986
0.023917617 -0.020260869 0.16920698 0.013753736 0.07700677 0.03726927 0.26147002 -0.054411966
0.033605825 0.03344927 0.21884377 -0.09871579 -0.085818 -0.08660892 -0.020316815 -0.16549945
0.2308666 0.12466337 -0.38973588 0.037847888 0.031707264 0.069672786 -0.35919458 0.15380873
-0.20480312 -0.023155542 0.0053234 0.014996241 0.0089221895 0.0543847 -0.18689592 -0.16810481
-0.022195628 -0.011348578 -0.8624423 -0.25261807 0.058378603 -0.043082856 -0.43278363 -0.047294807
-0.22379741 -0.2208611 0.101449184 0.117339194 -0.120492674 -0.103052296 -0.038184308 -0.04169487
-0.32159624 -0.43442816 -0.1323058 0.0051955893 -0.04160267 0.016956132 -0.52142876 -0.1664021
0.015486114 0.03132431 -0.11899656 -0.08658562 -0.13027872 -0.14288744 -0.07953672 -0.15584992
-0.023986602 0.013106631 -0.19859849 0.029923405 -0.09462967 -0.15103817 0.055790454 0.04652443
-0.12071087 -0.13798274 -0.11512561 -0.21597844 -0.11664865 -0.26189297 -0.16731031 -0.10278839
-0.22248492 -0.098971985 -0.03797417 -0.062972195 0.027215673 0.040963605 -0.07408623 -0.10350659
0.07048157 -0.063050896 -0.07298285 -0.017521853 -0.13192172 -0.04019399 -0.18881656 -0.010260019
-0.13184343 0.06578284 -0.0727771 0.0036959897 -0.05276569 -0.14043216 -0.14611177 -0.06306482
-0.044699572 -0.21083762 -0.064862706 0.07488367 -0.050635066 -0.008096408 0.027062919 -0.1166907
0.018641165 -0.15663743 -0.020590069 -0.052366436 -0.11109829 -0.13229424 -0.08313202 -0.007292436
0.13424517 0.07995011 0.028808784 -0.018591506 0.08432666 -0.2841435 -0.03540468 -0.0036839738
0.012051552 -0.23363943 0.049047 0.097752325 0.0044255382 -0.071189255 -0.19932744 -0.04127808
-0.044640526 -0.19297336 0.10488551 0.049673874 -0.04478367 -0.40412378 -0.17508452 -0.101669066
-0.18561266 -0.059580676 0.1067045 0.0028024018 -0.22100087 0.004816529 0.06831591 -0.101931915
-0.15569295 0.046997096 -0.17993742 0.008804516 -0.14805141 -0.21998009 0.036982793 -0.26251844
-0.13961892 -0.025436625 -0.14671203 -0.13855983 -0.17155279 -0.12763369 -0.026280424 -0.3138182
0.027758619 -0.42328414 -0.06946408 0.07968367 -0.04888041 -0.1799007 0.01318428 0.018067189
00000000: 4160 573d 5446 d2bb c88f 233b 1b73 353d
00000010: ba83 64bd db09 163d 22c0 13bd 4a0e 943c
00000020: 172c 07be db6b 043d 252c 9fbe f1b9 7dbc
00000030: 31d0 3a3e 5c33 2cbe 9018 4dbe 7ab8 00bf
00000040: 7aa0 c1bd 5005 983b e045 563d 8777 83bf
00000050: fd49 7c3e 07a5 8f3d 3fe8 abbd 2dfa 8bbe
00000060: 240c ddbd 6058 a93d fe14 d43c a4a1 8fbe
00000070: a16f bb3e 3155 393e 42ca ffbd 4443 53be
00000080: bddf 3b3c 26bc ebbe f83c 50bf d5c5 db3c
00000090: 6bb1 f3bd 21fb 0abf 7d52 d5bd 93f7 86bd
000000a0: 471e 1bbe 62c1 d7bd bd85 613d b981 80bd
000000b0: 9e09 e9bd 9263 15bd a0f6 f8be 11e5 0b3c
000000c0: 5ecc 48be 4d91 efbd 0e45 573b f889 d7bc
000000d0: 76cc 45bd 3ddd 3dbd 9fef e43c 395b 803d
000000e0: 73e9 1f3d 972b 173d 771f 253d 81ef 13bd
000000f0: 70a6 2ebe b806 36be 3521 82be d668 013d
00000100: 4aa9 3e3d 2f88 f63d f702 11bf 9977 5fbe
00000110: df6c bc3e 9812 133d f0f9 553d 95c8 50bd
00000120: 9daf 01be f896 4fbe a863 8abc 650d 80bd
00000130: 57d2 29be f470 cc3c 69b9 b8bd 9f08 f03c
00000140: e1ee c33c 1ffa a5bc 9844 2d3e 5a57 613c
00000150: bab5 9d3d a9a7 183d 66df 853e 15df 5ebd
00000160: 43a6 093d 1a02 093d 9518 603e 812b cabd
00000170: 59c1 afbd 0460 b1bd 736f a6bc b078 29be
00000180: 4b68 6c3e 824f ff3d 768b c7be 6306 1b3d
00000190: 7adf 013d 9bb0 8e3d 5ae8 b7be 0980 1d3e
000001a0: e9b7 51be b1b0 bdbc ea6f ae3b cbb2 753c
000001b0: 602e 123c 7ec2 5e3d a561 3fbe ab23 2cbe
000001c0: 9bd3 b5bc 63ef 39bc 05c9 5cbf 2857 81be
000001d0: 671e 6f3d a677 30bd d195 ddbe 33b8 41bd
000001e0: 262b 65be 6a29 62be 97c4 cf3d 884f f03d
000001f0: ddc4 f6bd 150d d3bd 2667 1cbd 3dc8 2abd
00000200: 43a8 a4be 5e6d debe 2c7b 07be c33f aa3b
00000210: 9067 2abd 96e7 8a3c 5b7c 05bf 5065 2abe
00000220: 78b9 7d3c eb4d 003d 78b4 f3bd cd53 b1bd
00000230: c967 05be 1651 12be 26e4 a2bd 1f97 1fbe
00000240: 8d7f c4bc 32bd 563c 675d 4bbe ee21 f53c
00000250: 33cd c1bd c0a9 1abe 8884 643d 6790 3e3d
00000260: 4337 f7bd 594b 0dbe fac6 ebbd 7429 5dbe
00000270: 7de5 eebd d616 86be 6553 2bbe b882 d2bd
00000280: 16d3 63be d3b1 cabd ce8a 1bbd 91f7 80bd
00000290: 67f3 de3c 74c9 273d 85ba 97bd 43fb d3bd
000002a0: a458 903d d420 81bd 0878 95bd fd89 8fbc
000002b0: 7d16 07be 74a2 24bd 2159 41be a419 28bc
000002c0: f701 07be 27b9 863d 290c 95bd 6b38 723b
000002d0: d620 58bd 73cd 0fbe 539e 15be 2128 81bd
000002e0: e616 37bd d1e5 57be bdd6 84bd 9c5c 993d
000002f0: b766 4fbd cca6 04bc 0eb3 dd3c 89fb eebd
00000300: 5bb5 983c 9065 20be 81ac a8bc 307e 56bd
00000310: 8087 e3bd 2478 07be 1f41 aabd 63f5 eebb
00000320: 9177 093e e2bc a33d 6600 ec3c 374d 98bc
00000330: 75b3 ac3d 427b 91be 7f04 11bd d36e 71bb
00000340: df73 453c 2d3f 6fbe 82e5 483d 5f32 c83d
00000350: 1b04 913b accb 91bd 7e1c 4cbe 3413 29bd
00000360: fcd8 36bd cf9a 45be 37ce d63d d576 4b3d
00000370: 156f 37bd 50e9 cebe 5b49 33be df37 d0bd
00000380: 3f11 3ebe de0a 74bd e487 da3d 80a8 373b
00000390: 0d4e 62be f9d3 9d3b 36e9 8b3d aec1 d0bd
000003a0: f96d 1fbe 0780 403d 8441 38be d140 103c
000003b0: ca9a 17be 7642 61be 457b 173d d168 86be
000003c0: 43f8 0ebe 7860 d0bc ae3b 16be a1e2 0dbe
000003d0: 89ab 2fbe 68b2 02be 0b4a d7bc c7ac a0be
000003e0: 0b66 e33c b3b8 d8be 2f43 8ebd 3131 a33d
000003f0: d336 48bd e437 38be e102 583c a401 943c

fc2.bias f4 [64]
0.41020393 0.33827224 0.0026150162 -0.08780848 0.65703315 0.024403378 -0.0044419565 -0.15440273
-0.059863213 0.3341405 -0.00013635552 0.70583624 0.04513813 0.30039993 0.65668297 0.30180818
0.0046447446 -0.02156706 0.45017195 0.5276583 0.027731469 0.71838343 0.13199764 0.09585977
0.95335144 0.035908617 0.63706505 0.085695624 0.12402707 0.2000645 0.0359096 0.35965416
0.66085255 0.6234032 -0.02217134 0.49407277 0.31710988 0.1236296 0.031178348 0.043499514
0.40647352 0.14353645 -0.4164765 0.013056669 -0.12964806 0.021229306 0.01683813 -0.019228064
0.28216234 0.23926093 0.35554346 0.041363582 0.05767077 -0.028661236 0.6723733 -0.006415988
0.06408807 0.20892654 0.03969537 0.06676808 -0.0045680953 0.073713854 0.20862983 0.1977518
00000000: 4006 d23e 0532 ad3e b160 2b3b efd4 b3bd
00000010: 5333 283f 98e9 c73c d58d 91bb c01b 1ebe
00000020: 2133 75bd 7714 ab3e a8fa 0eb9 afb1 343f
00000030: c3e2 383d 05ce 993e 601c 283f 9a86 9a3e
00000040: f132 983b 67ad b0bc f07c e63e 9d14 073f
00000050: 1b2d e33c fae7 373f 642a 073e 2152 c43d
00000060: d70e 743f ea14 133d b216 233f 3081 af3d
00000070: e801 fe3d b5dd 4c3e f215 133d 9724 b83e
00000080: a22d 293f 5a97 1f3f aca0 b5bc 1bf7 fc3e
00000090: 3a5c a23e 8431 fd3d bc69 ff3c 8c2c 323d
000000a0: 4c1d d03e 38fb 123e 683c d5be a4eb 553c
000000b0: 76c2 04be 15e9 ad3c 1ef0 893c 2c84 9dbc
000000c0: 9577 903e d100 753e cb09 b63e dc6c 293d
000000d0: 2f38 6c3d f8ca eabc a820 2c3f 353d d2bb
000000e0: 9b40 833d d7f0 553e 9d97 223d b4bd 883d
000000f0: f6af 95bb 4af7 963d 0fa3 553e 737f 4a3e

fc3.weight f4 [1, 64]
-0.012666507 -0.0077231433 0.017424446 0.010573181 -0.006482799 -0.02252416 -0.0066375774 -0.016939705
0.0081026 -0.0072535826 0.009164427 -0.0050735613 0.0440786 -0.01464796 -0.0072043184 -0.013871559
-0.03617767 -0.001622029 0.011237439 -0.013081856 0.023203002 -0.008905047 -0.0077377586 0.08155529
-0.037331372 -0.0015997076 -0.005887967 0.00020328886 0.008081835 0.017153773 -0.00491019 0.025158605
-0.008058951 -0.013024979 0.033517327 -0.007250831 -0.006133087 0.011748786 0.008311463 -0.0012201449
-0.012897021 0.01596587 0.00731564 0.00063358323 -0.021940947 -0.028792614 0.0046868874 0.018334068
-0.012052001 -0.011875407 0.017744094 0.028891684 0.025454938 0.009814476 -0.005992161 -0.008623823
-0.013618315 -0.0220881 -0.01487035 0.0072465027 -0.00094789395 0.02205574 -0.014271399 -0.01074073
00000000: 2e87 4fbc 6c12 fdbb b6bd 8e3c 233b 2d3c
00000010: a96d d4bb 9684 b8bc 0980 d9bb 23c5 8abc
00000020: c5c0 043c 76af edbb 6526 163c 1e40 a6bb
00000030: c38b 343d fffd 6fbc 3412 ecbb 8945 63bc
00000040: 092f 14bd 439a d4ba 3c1d 383c 4855 56bc
00000050: 3914 be3c 79e6 11bc 068d fdbb 7606 a73d
00000060: c8e8 18bd 48ad d1ba d9ef c0bb f029 5539
00000070: ac69 043c 1286 8c3c a9e5 a0bb 6b19 ce3c
00000080: b109 04bc b966 55bc 7749 093d 6198 edbb
00000090: 10f8 c8bb fb7d 403c cd2c 083c 45ed 9fba
000000a0: 074e 53bc dbca 823c 09b8 ef3b 0d17 263a
000000b0: 80bd b3bc 7dde ebbc 7694 993b 5431 963c
000000c0: c275 45bc 1191 42bc 105c 913c 41ae ec3c
000000d0: e086 d03c e5cc 203c e459 c4bb ef4a 0dbc
000000e0: 5a1f 5fbc 1af2 b4bc c5a2 73bc 1274 ed3b
000000f0: 167c 78ba 3dae b43c 96d2 69bc e3f9 2fbc
