checkpoint_actor_0.pth (torch_old, 24598 bytes, 6 tensors)

fc1.weight f4 [64, 24]
00000000: 6ef4 4f3c 3b0c 243e 2664 fbbd e8f9 adbe
00000010: e77f a73e 9196 45bd 0c7f 48bd d5a5 5fbe
00000020: e9f8 093e 68f4 153e 61a8 1cbe 9939 03bf
00000030: 125a 2a3e 364f b5bd 4bce e7bc 591a 11bf
00000040: 8b81 b83d 7968 be3c e6cd 8ebd 4376 e5be
00000050: 92c0 763e 0c08 bcbe ae4e c7bd 7f6a e3be
00000060: ea3d 803e 618e 5b3f 975e 51bc e83d babe
00000070: bacf c8be 8b9c cbbe fbe9 9b3d 141f f8be
00000080: 282c 3c3b a08c c63e 5896 5dbe e00e a9be
00000090: 33c4 9f3e b743 18be f88a 09be 3f6a a7be
000000a0: ccdb 773e 4ba1 b63e b11b 183d 5d46 84be
000000b0: c1df 443f ff86 2cbe 68ee 933d 4d36 a2be
000000c0: 0965 da3c 1475 b1be 3385 833d 4975 283d
000000d0: 5829 77be bde2 00bf 1e2c 7abd 37c8 67bd
000000e0: e5d5 b0bd 05f1 27bf b8cb 4fbd e9c6 7b3e
000000f0: 0654 f83e 9edc d8bd f72c 8e3d 460b ec3d
00000100: 8f2f 63be 802b d4be 0ef5 1c3e bf18 2b3f
00000110: 163c 713f 020e 263e eeb1 67bd 191b 353f
00000120: c2c6 2b3f e658 653e a580 9a3c 1b4c 313e
00000130: 78f9 e8bd de22 84be 67d5 ca3c 24cc aa3d
00000140: b1c9 303f 1f90 1b3e 406b 4d3e 985c 10be
00000150: 1122 7cbe 6a8d 3bbe 5cc1 d03c aff3 7ebd
00000160: b8e7 3b3f 54c9 f93d 45cd cebc c231 b23e
00000170: b5f6 c3be bdce f8be 9d95 56bd 3cbb 4e3e
00000180: 1062 e93d ebbf 123f d19f c53d ac6a cc3e
00000190: 0501 e3bd 1559 e5bd d6a7 843d 4cb7 cc3e
000001a0: 2c2a c43e f266 773f 6e04 4ebb d9ae e33e
000001b0: 4e3e b2be 9da9 f5be 7752 febd e06d a33e
000001c0: ffaa a53e c95f 9a3f c4de 77bd 2813 88be
000001d0: 4e2d 15bf 4fd9 0fbf 0307 623d 6092 eabe
000001e0: 5e52 6f3e 7df9 803e 4c3f 0d3d 6f5b 07be
000001f0: b733 093f 8bad de3e 9ce3 37bd 7793 4cbd
00000200: f108 093e d330 aa3e 60bc 8cbd a5ac 39bf
00000210: 942c 7abe 2643 713e 4b07 08be bf8f 0dbf
00000220: a9f0 e23d ff15 a43c 8a4a 8cbb 6341 cfbe
00000230: 0e31 3dbf 0356 ac3e ecf5 25bd 6d0c 12bf
00000240: b154 52bd d9ca a4be 49fe 4fbd 693a 9f3e
00000250: 5363 b63e 8f71 9bbe eb5a 63bd 7670 fd3e
00000260: 507d 093d 5366 85be c710 fdbd 25c8 6abd
00000270: b75a 6f3f d777 f4be caf4 5bbd 192e cdbd
00000280: 7fb5 a23e bee4 b43d f42c d9bd 9ea9 e1bd
00000290: 3322 8b3f 2d67 70bf 2c96 10bd a658 75be
000002a0: 8cac 71be e93d 0c3f bbad b8bc 883c a03d
000002b0: 96df bcbc 383a 8d3e 3d7d bbbd fe6a a13d
000002c0: 3b94 ecbd b869 363f 0a97 933d e60e 933e
000002d0: 3778 883e fcef b5bd 40c2 803c 3d1d a73e
000002e0: edff c93d a11f 5e3f 5d76 90bc f838 fe3e
000002f0: c6b4 5f3f 72bc 363d 9798 973d 7e40 be3e
00000300: 191a e33d 6505 34bf b12e 303e 4418 ee3d
00000310: 7914 4bbe 2c64 e1be 241c 3c3d 5758 c13d
00000320: 7ea7 943e e9b9 7abf 622a 3ebd bfbd ac3e
00000330: 07d7 933d e1fc 94bd 08d9 0cbd e55e 803e
00000340: 68e2 f33e 3520 6fbf 907d 9dbd 4b2d f93e
00000350: 3619 a33e 0dca 013e ec14 88bd 6509 ed3e
00000360: 71d9 743e 0aca 64be 20d4 e5bd 40dc 0abf
00000370: 704e 463e 6de6 773e 3cec 14bd 84d7 05bf
00000380: a552 083c 5311 59be 1a53 903c cb83 bfbe
00000390: de4d 7ebe cde1 86b9 af6e e5bd 5b74 40be
000003a0: cf97 863e 992e 4e3d c2dd 48be 223d 4fbd
000003b0: 5e66 e5be 1db2 f6be 1647 45be e8db b5bc
000003c0: a4d2 90bd 84e0 30bf ef9c 2a3d 3466 24be
000003d0: 89c7 4b3e 63d5 8fbd b154 57bd a2c8 2fbe
000003e0: 1589 28be 1605 33bf 44c4 22bc d709 c33e
000003f0: bcc3 43be 1e39 82be e9d0 aebc a940 b03e
0.012692554 0.1602029 -0.12274961 -0.33979726 0.3271477 -0.048239294 -0.048949286 -0.21840604
0.13473858 0.14644015 -0.15298606 -0.5125976 0.16635922 -0.08852999 -0.02829661 -0.5668083
0.09009083 0.023243176 -0.06972866 -0.4481679 0.24096897 -0.3672489 -0.09731804 -0.44417188
0.25047237 0.8576413 -0.0127789 -0.36375356 -0.39220983 -0.3976787 0.076129876 -0.4846121
0.0028712843 0.38779163 -0.21639383 -0.3301916 0.31204376 -0.14869581 -0.13431919 -0.32698247
0.2420494 0.35669932 0.037135784 -0.25834933 0.7690392 -0.16848372 0.07223207 -0.31682053
0.026659505 -0.34659636 0.0642189 0.041127477 -0.24136865 -0.50345975 -0.06107723 -0.056587424
-0.08634547 -0.6560214 -0.05073139 0.24587597 0.48501605 -0.105889544 0.0694217 0.11525588
-0.22186111 -0.41439438 0.15327856 0.66834635 0.9423231 0.16216281 -0.05656617 0.7074447
0.67100155 0.22397193 0.01886017 0.17314188 -0.113757074 -0.25807852 0.024759961 0.08339718
0.69057757 0.15191697 0.20060444 -0.14097822 -0.2462237 -0.18315664 0.025482826 -0.062244114
0.7340045 0.121966034 -0.025244365 0.34803587 -0.3827416 -0.4859523 -0.052388776 0.20188612
0.11395657 0.57324094 0.09649623 0.39925134 -0.11084179 -0.11198632 0.06477325 0.39983594
0.38313425 0.9664146 -0.0031435746 0.44469336 -0.3481316 -0.47980967 -0.12418073 0.31919765
0.32357022 1.2060481 -0.06051518 -0.26577115 -0.58272254 -0.5619096 0.05518247 -0.458148
0.23371264 0.25190344 0.034484193 -0.13218473 0.53594536 0.43491778 -0.0448948 -0.04994532
0.13382317 0.33240375 -0.06871867 -0.7252906 -0.24431068 0.23560771 -0.13284032 -0.55297464
0.110810585 0.02003002 -0.0042813467 -0.40479574 -0.73902977 0.33659372 -0.040517733 -0.5705021
-0.0513503 -0.3218601 -0.050779615 0.3109925 0.35622653 -0.30360076 -0.055506628 0.49499863
0.033566773 -0.2605463 -0.12356716 -0.05731978 0.93497795 -0.4774768 -0.053700246 -0.10018558
0.31779096 0.088326916 -0.10604277 -0.1101868 1.0869812 -0.93907434 -0.035299465 -0.23959598
-0.23600978 0.5478197 -0.022543779 0.078240454 -0.023055833 0.2758348 -0.09154747 0.07881735
-0.1155171 0.71255064 0.07206543 0.28722304 0.26654217 -0.08883664 0.015717626 0.32639495
0.09863267 0.8676701 -0.017634565 0.4965284 0.87385213 0.04461331 0.07402151 0.3715858
0.11088962 -0.7032073 0.17205311 0.11625722 -0.19832028 -0.44021738 0.045925274 0.094406776
0.29034036 -0.97939926 -0.04642714 0.33738515 0.072187476 -0.07274795 -0.034386665 0.250724
0.47633672 -0.9340852 -0.07689965 0.48667368 0.31855172 0.12674733 -0.066446155 0.4629623
0.23911072 -0.22342697 -0.112221 -0.54242325 0.19365859 0.24208994 -0.036358103 -0.52281976
0.008320485 -0.21198015 0.01761775 -0.37405238 -0.24834391 -0.00025726706 -0.11202752 -0.18794386
0.26287696 0.050337408 -0.19615844 -0.05059541 -0.44804662 -0.48182765 -0.19265398 -0.022199586
-0.070714265 -0.69092584 0.04165357 -0.16054612 0.19900335 -0.07023122 -0.052571002 -0.17166379
-0.16458543 -0.69929636 -0.009934489 0.38093445 -0.19117635 -0.25434202 -0.02133985 0.34424332

fc1.bias f4 [64]
00000000: 1d45 d4bd af83 11bd 0ac2 3d3d 9e2e b7bd
00000010: 8656 8ebe b705 b6bc 5e6c 25bd deeb f4bd
00000020: 469c 18be 5b0b 29be 574a 713e fa39 143e
00000030: 49e0 4cbd d979 26be 53cd 8cbe 162c d2bd
00000040: 08cf 973d 7989 3cbe 5402 033e c4e2 83be
00000050: 3201 9b3e b570 9cbe 8f52 49be c668 a0be
00000060: 5540 3e3e bbab 09bd 1eab 093e 0d65 6ebd
00000070: e375 08be 9b0b 3fbe 582b 073e 1c2e 16bd
00000080: abf6 69be 5cd9 033c b481 4fbc 2c17 89be
00000090: 382c 293e af55 48be 96e8 413c eb30 b3be
000000a0: a06c 7ebe 9342 b43d 866e adbd 9aec b6bd
000000b0: be10 11be e1de b2be 51a9 443e f85c 81bd
000000c0: f99c 443d 7dc8 c03e f6b9 5b3f 689e efbe
000000d0: e799 74be af50 7a3e 4724 f33e 5651 20be
000000e0: 8d53 563e d487 03be 7cfb 8cbd 8a09 4d3e
000000f0: 5ad5 a0be ac7b 843e dd5b 993d 5dc9 963d
-0.10364745 -0.035525974 0.04632763 -0.089444384 -0.27800387 -0.022219522 -0.04038655 -0.119590506
-0.14903364 -0.16508238 0.23563515 0.14475241 -0.050018582 -0.16257419 -0.275004 -0.10262315
0.07412535 -0.18411817 0.12793857 -0.25758946 0.3027435 -0.3055474 -0.196604 -0.31329936
0.18579228 -0.03361104 0.13444182 -0.05820184 -0.1332622 -0.18656771 0.13200128 -0.036665067
-0.22848003 0.008047428 -0.012665201 -0.2677549 0.16520774 -0.19563936 0.011835238 -0.3499826
-0.24846125 0.088017605 -0.08468346 -0.08931847 -0.14166543 -0.34935668 0.19205214 -0.063165605
0.048001263 0.3765296 0.8583063 -0.46800542 -0.23886834 0.24444841 0.47488615 -0.15656027
0.2093031 -0.12844783 -0.06883904 0.2002317 -0.31412774 0.25875604 0.07488225 0.07362626

fc2.weight f4 [64, 64]
00000000: f338 823d 97ef 2c3c 25fb 36be 5f40 1abf
00000010: c45e 8ebe c8d9 b73e cc66 9abe 3a1c 573e
00000020: 69f9 f63e 8e41 2ebe 4f3a fabd 3f15 4cbf
00000030: 372b 403e 234d eebc eaa2 913e d99d 9fbd
00000040: 336c 62bd b557 9fbe 3a5e bd3e 0d70 00be
00000050: 5fa2 5ebe 1c25 2fbf cc79 ad3c 7def 723e
00000060: 5928 09bd 802e 95be 4386 993e 5dc2 033e
00000070: 4702 46bd 950c 6b3e 971f a4be 00ac efbe
00000080: 3894 553c 2c84 023e 0c55 80bf a4e0 853e
00000090: 9a08 6a3c 25ec 57be b869 bebe f025 943d
000000a0: 0116 33be e070 923e 0b70 973d a9d7 923e
000000b0: 8403 4cbe e9fe bebe 91ef 30be 91d2 a3bd
000000c0: 61f3 debc 5d81 bebe cb81 2a3d 7db8 30be
000000d0: e48c 42bc d523 3dbd 8256 01be 7bbc 6bbd
000000e0: 18b8 15bd edaf c1be 4af4 443e ea83 07bf
000000f0: 798e e9be f637 26bc 4869 983b 6338 5dbf
00000100: 895c ea3c 29cf 383f b93c 9dbe 962c 07bd
00000110: 225b 70bf 6edb bebd 1f28 373f 53ef d33d
00000120: f4ef 313e fee9 acbe 61e0 2bbf 8a4f 063d
00000130: e593 e53e 74e4 163e d627 2f3e a442 4b3e
00000140: 2a62 9abe fa01 c5be 972a f1be 7958 06bf
00000150: c2d9 e9be 889d ab3c 6673 2d3e f3c1 8dbc
00000160: 9a2c fdbe 58f3 5a3f dc9e f73e e0a0 93be
00000170: ecbe b53e b650 1d3e 5963 41bd 834d ee3e
00000180: 51a5 66bd 6f32 2e3e b899 68bf afa7 a23e
00000190: db63 8b3e b49f a0bd 67a8 a0bd 7f3d 973e
000001a0: b538 febd fed5 043e dced e3be 7cd1 49be
000001b0: 731b d43d 1eab 973d 30f0 8dbe 8c07 1abf
000001c0: 1e5e ea3e 57f1 a1be 955b ba3e 2ffd 30bf
000001d0: 08f3 72be 4568 dc3e ec90 29bf 6489 8e3e
000001e0: a2a0 e63e 887d 1bbd 1b96 b0bc 137b af3d
000001f0: fa65 60be afaa 343d c1f5 38bf fa30 f33c
00000200: dea1 c73d 6b2c 313e 152b 7cbe f021 823e
00000210: b515 3abe 6db1 98be 74bd 8f3e 8711 14bb
00000220: cfcb 973d f350 2d3e 0140 45be 1c8e 5f3d
00000230: d9fd 95be 429d 3bbd 404b a8be 6889 3cbf
00000240: 925b d33e f2ae 023e 6e27 913c b6a0 13bf
00000250: 85ea d1be 4299 50be 64c4 f5bd 8e00 b1be
00000260: 2ece c5bc 4d4a 4d3d 7735 6abf 6c91 233e
00000270: 44c5 5dbd 94c6 43bf 2b09 49be faa2 eebe
00000280: 886e 03bf 2ebc 42bd 49a7 30be 31c6 c33e
00000290: b9e5 eebe f8b1 16be 77a0 65be 0319 c33c
000002a0: 509a f8bd abbe f4be c784 913e 59c4 553c
000002b0: 05c9 a3be ff39 89bd 6731 b5bd 60aa 1b3f
000002c0: f6d5 5e3d b096 06be d3f7 6abf 29c8 8bbe
000002d0: b73f ecbe 8a40 52bf 1f03 f3bd 4782 96be
000002e0: aaa7 e6bd 893d 65bf 06ff a03d 5dca 793d
000002f0: 19a4 06bf 062a f7bc 0402 2cbe 429b e4bd
00000300: 059c 2dbe 07a7 d3bd d547 a6bd 9df7 673e
00000310: 5129 28bf 0cff 9f3e a7ae cebd 2fde 58bf
00000320: d3e3 963d e3f0 3a3e 77a2 6f3e 3cba 1cbf
00000330: 4dcb 153e 077b bb3c c282 66be 74db 973d
00000340: 41de 92bc 1092 10be 3c24 1f3d a4fe f83d
00000350: 2b6b ab3e 9f90 953e d630 53bc f77d 313e
00000360: 817a 98bc b0fc b63e fadd d3be 2b71 07bf
00000370: dd87 99be 7dd7 b83e 7c1f 483d 8673 aebd
00000380: 86de 1fbd 5c72 2cbd d2de eb3e 716b 983d
00000390: ca77 6fbe c970 ecbc 1406 6d3e aa78 e9ba
000003a0: 75a9 4dbe 468b 0bbe ceae 8abb 1404 dcbd
000003b0: 1bf3 59be 4e8f 53be a6fb 25be 6367 f33d
000003c0: aca1 ec3d 847f 73be 4306 48bf 4186 73bc
000003d0: 478e 353d f83f 89be a051 64b8 5171 8fbd
000003e0: 646d 7d3e 1eb5 f23d 2355 89bf a3fc 85be
000003f0: 4d72 a13e 3c5c 0fbe 5e20 9cbc f3c4 5abd
0.063585185 0.01055517 -0.17869242 -0.6025447 -0.27806675 0.3590834 -0.30156553 0.21006861
0.4823716 -0.17017195 -0.12218153 -0.7971992 0.18766485 -0.029089516 0.28444606 -0.07793779
-0.055278968 -0.31121603 0.36985952 -0.12542744 -0.21741627 -0.68416 0.021176241 0.2372417
-0.033485744 -0.2913704 0.29985246 0.12867112 -0.048342016 0.22954018 -0.3205535 -0.46810913
0.013035826 0.12745732 -1.0025954 0.2614795 0.014284277 -0.21086176 -0.37190032 0.072337985
-0.17488863 0.28601742 0.073944174 0.2868016 -0.19923216 -0.37303856 -0.17278887 -0.07999147
-0.027215661 -0.3720807 0.041627686 -0.17257877 -0.011874411 -0.04617675 -0.12630656 -0.057552796
-0.03655252 -0.37829533 0.19233814 -0.5293566 -0.4561651 -0.010145178 0.0046512224 -0.86414164
0.028608577 0.721911 -0.3071039 -0.033001505 -0.9388906 -0.09319197 0.71545595 0.10348382
0.17376691 -0.33772272 -0.6713925 0.032790698 0.44839397 0.14735585 0.1710504 0.1984964
-0.30153018 -0.3847807 -0.47102806 -0.5247875 -0.4567395 0.02094914 0.16938552 -0.017304396
-0.4944809 0.85527563 0.48363388 -0.28833675 0.35497224 0.1536282 -0.047213886 0.46543512
-0.05631 0.17011426 -0.90859556 0.31768557 0.2722462 -0.07842961 -0.0784462 0.29539105
-0.1241316 0.12972257 -0.4451741 -0.19708818 0.10356798 0.07405685 -0.2772231 -0.60167766
0.4577493 -0.3162944 0.36397997 -0.6913633 -0.23725522 0.430483 -0.6623676 0.27839196
0.45044428 -0.037961513 -0.02155595 0.085683964 -0.21913901 0.04410809 -0.7224999 0.02968644
0.097476706 0.173021 -0.2462581 0.25416517 -0.18172343 -0.29822865 0.2807423 -0.0022593455
0.0741192 0.16925411 -0.19262697 0.054578885 -0.29295233 -0.04580427 -0.3286991 -0.73647165
0.412808 0.12762049 0.017718997 -0.576671 -0.40999237 -0.20370963 -0.12000349 -0.34570736
-0.024146166 0.050119687 -0.9148783 0.15973443 -0.054143205 -0.7647488 -0.19632404 -0.46608716
-0.5134053 -0.047542743 -0.17251314 0.38237146 -0.4665964 -0.14716327 -0.22424494 0.023815637
-0.12138808 -0.47801718 0.28421614 0.013047301 -0.31989303 -0.06700515 -0.088473134 0.60806847
0.054403268 -0.1314342 -0.917844 -0.27301148 -0.4614236 -0.8212973 -0.1186583 -0.2939627
-0.11262448 -0.8954702 0.07861142 0.060984004 -0.52594143 -0.030171406 -0.16797644 -0.111624256
-0.16954048 -0.10334592 -0.081191696 0.2265305 -0.65688044 0.31249273 -0.10091906 -0.84714025
0.07367673 0.18255953 0.23401819 -0.6122167 0.14628334 0.022885812 -0.22510818 0.07414904
-0.017928245 -0.14118218 0.038852915 0.12157944 0.334802 0.292119 -0.012890061 0.17333208
-0.018613102 0.3573966 -0.41380292 -0.52907056 -0.29986468 0.36101905 0.04885815 -0.08518128
-0.039030574 -0.04210125 0.46068436 0.07442368 -0.2338554 -0.028862374 0.2314685 -0.001781245
-0.20084174 -0.13627347 -0.004232264 -0.10742965 -0.21284144 -0.20660135 -0.16209278 0.11884954
0.11554274 -0.23779112 -0.78134555 -0.014863552 0.04432514 -0.26806617 -5.4435455e-05 -0.07004035
0.2474876 0.118509516 -1.0729107 -0.2616931 0.31532517 -0.14000028 -0.019058403 -0.05341048

fc2.bias f4 [64]
00000000: ff66 133e d7df 9bbe 68e2 4e3d 9ba7 67be
00000010: 4d5d 18be 3423 aa3c b774 aebe 3584 6f3e
00000020: c411 7a3e 9fcc 993b 2cb2 cc3d 82b9 6abe
00000030: 65b0 34bd 0655 1cbe 64d1 ccbd 981c 363d
00000040: e559 1ebe ccce 10be bd3b 563e 8124 95be
00000050: 2226 fdbd 708d a9bc 540c 6dbc 7a43 86bc
00000060: 3297 f8be 53c7 abbd 6547 47bd a29e 003d
00000070: 53ae b73e 93ce ad3d d676 4dbd 7c27 593e
00000080: 1ff4 d23e 354a 503c e2a6 1b3d 5413 aebd
00000090: b9fb 48bc 4aa1 1ab8 b2b8 6fbe 4a31 ccbd
000000a0: 37cb a2bb fb47 b43d 6d45 a23e fad6 433d
000000b0: bf1f 3d3c 8bf7 523e 4402 15be 4f57 103e
000000c0: 89bb 3fbe aefa 63be 023a 5cbe 3af3 da3d
000000d0: 362e be3c 53f4 4a3e 0b93 aebc 220a 693e
000000e0: da1e debd 7641 443e 7fc2 683e 0d77 8b3e
000000f0: 8dbc c5bd f913 383e 4a7f 1cbd 4444 fb3d
0.14394759 -0.30444214 0.050508887 -0.2262253 -0.14879341 0.02076874 -0.3407342 0.23390277
0.2442084 0.004693582 0.09994921 -0.22922328 -0.044113535 -0.15266809 -0.100008756 0.044460863
-0.1546398 -0.14141387 0.20921226 -0.29129413 -0.12360789 -0.020697325 -0.014468271 -0.016389597
-0.48552853 -0.083876275 -0.04865207 0.031401284 0.35875186 0.084866665 -0.05016216 0.21206468
0.41201875 0.012713005 0.03800095 -0.0849978 -0.012267047 -3.6866673e-05 -0.234103 -0.09970339
-0.0049680728 0.08802792 0.31693593 0.04781244 0.011543213 0.20602243 -0.14551646 0.14095806
-0.18723883 -0.22263595 -0.21506503 0.10690923 0.023215394 0.19819765 -0.02131035 0.22757772
-0.10845728 0.19165596 0.22730444 0.27239266 -0.09655104 0.17976369 -0.03820733 0.1226888

fc3.weight f4 [2, 64]
00000000: 8c7c 4abe cd48 27bf ee04 afbe a68f 29be
00000010: a225 c2be 56f2 fdbd d69c 65be 3aff aebd
00000020: 9639 2b3f fb2e 743c 504a 02be e70a 123e
00000030: b0de f3bd 29dc ddbe d68b 003f 0e38 103e
00000040: 1286 89be 29cd 8bbe 5e40 a43d c9cc 45be
00000050: 2e0e 9cbe 2e25 7b3c 1a75 aebe 8b53 df3e
00000060: dda1 e7be 8827 d7be 3dca 583d 2538 aebe
00000070: 9be8 af3e 9e77 6c3e bfe1 10be fbdb ea3e
00000080: 038a fbbd 2b6f 343e 6f1f 683e 68d1 3fbe
00000090: a958 a2bd d4be eebb 3b8f 873d 8424 a6be
000000a0: c6e1 1dbc 1951 22be 1e90 0fbf 50a9 6a3e
000000b0: ebd6 8c3c 7f43 7e3d 6376 0f3e 676f 09bf
000000c0: 91b5 de3e 0b03 dabd ecad a1bc 6853 953e
000000d0: 38f7 7fbe d71e 3f3e 3150 dfbd 04e3 033e
000000e0: 1a23 80bd df02 5b3c 150f 71bd 6c61 153f
000000f0: 1354 073f 5f30 8cbc 3ba3 6dbc 9cb9 463e
00000100: 0dbe bb3d 78fe a0be 69b0 873f 4c15 d9bd
00000110: 1b7d e43b b8fa 683e 9f75 83bf aca5 a03f
00000120: c03e 193f 891d 4ebc 8d75 043f b12c b5bc
00000130: 1f0c 3c3d 830c 7cbe 497c 83bd 2ef4 1a3f
00000140: 01a9 1c3f df8e 8c3c 976f 4d3f 0649 e1be
00000150: b0c7 b2bd 33ab 8e3a 9b79 90be abde fdbe
00000160: a81e 7fbf e4d3 f03d 150e 473f 154e c13d
00000170: 2793 d13e d039 08be 3e32 1dbf b1df ffbd
00000180: 25fe 463f f1f4 573e 1552 bdbe a933 1a3f
00000190: 17f4 9abd 5d53 efbb 4003 8dbe 2701 11be
000001a0: 47d0 183c f5b5 223f c949 8cbe 2b4a 26be
000001b0: 3a90 a5bb f62a 1e3f 01c0 3d3f b606 3abd
000001c0: 5bcc 383f 64a3 bc3c 5211 1abf 5517 8a3d
000001d0: 2ea3 8e3e 5ddb d4bc 5a72 3abf 2414 50bd
000001e0: 7ec5 07bf 4f0c 99be df4f d23e 3092 e3bd
000001f0: ca6e 79bd 3d76 963f 3fc5 083b 6a68 0c3f
-0.19774073 -0.6534546 -0.3418345 -0.16558704 -0.37919337 -0.123997375 -0.2242311 -0.08544774
0.66884744 0.014903779 -0.1272366 0.14261971 -0.11907709 -0.4333203 0.5021337 0.14083883
-0.268601 -0.27304962 0.080200896 -0.193164 -0.30479568 0.015328689 -0.34073716 0.43618426
-0.4524068 -0.42022347 0.052927244 -0.3402721 0.3435715 0.23092505 -0.14148615 0.45870957
-0.12282183 0.17620532 0.22668241 -0.18732226 -0.07927067 -0.007285932 0.06619116 -0.32449734
-0.009636348 -0.15851249 -0.5607928 0.2291615 0.017192325 0.062076088 0.14010005 -0.5368561
0.434979 -0.10645112 -0.019736253 0.29165196 -0.2499665 0.18664108 -0.10903967 0.12879568
-0.06256695 0.013367384 -0.058852274 0.5835178 0.5286266 -0.017112909 -0.014504249 0.19406742
0.09167109 -0.31444144 1.0600711 -0.10599765 0.0069729215 0.22751892 -1.027027 1.2550559
0.59861374 -0.012580284 0.5174187 -0.022116037 0.045909997 -0.24614148 -0.0642019 0.6052884
0.6119538 0.01715797 0.802484 -0.44001025 -0.087294936 0.0010884762 -0.28217778 -0.49583945
-0.9965615 0.11759165 0.7775586 0.09438721 0.4093258 -0.13303304 -0.6140479 -0.124938376
0.77731544 0.21089531 -0.36976686 0.6023508 -0.07566088 -0.007303639 -0.27541542 -0.14160596
0.009327001 0.63558894 -0.27400044 -0.1623923 -0.0050525935 0.61784303 0.741211 -0.045416556
0.7218682 0.02302713 -0.6018268 0.067427315 0.2785887 -0.025983507 -0.72830737 -0.050800458
-0.53035724 -0.29892203 0.41076562 -0.111118674 -0.060896672 1.1754833 0.002086952 0.54846823

fc3.bias f4 [2]
00000000: 7c08 17bd 5173 173f
-0.036873326 0.59160334
